baselines/models/reveal/bigvul_best_f1_imbalanced.model (torch, 474255 bytes, 8 tensors)

layer1.0.weight f4 [256, 200]
00000000: 027d b73d 050f 2a3d 6853 733d 43c4 a8bc
00000010: b2ca e5bc dace bfbc d51c 15bd 2bec 043d
00000020: 4e13 05bd 52d9 bebc 15d6 0ebc c012 373d
00000030: 95cd 353d 14a4 06bd 4ec4 973c 5cff a7bb
00000040: 4515 993c 87fb d63c 20e0 a7bc 4568 ea3c
00000050: 6c4e 093a c798 0dbd ab0f b6bc 81d0 293d
00000060: 2187 4ebd d8c5 95bb 5438 ad39 5d34 78bd
00000070: ed2b 8bbc 515c 01bb 6e6c 8bbd 7ff3 07bd
00000080: 1fc7 29bd ccf9 05bd 6aaa 1ebd 1998 69bd
00000090: a693 813c 1858 2dbd da7c 8cbc b9d2 7e3d
000000a0: ef28 cbbb cfc3 95bc 2788 f83c 450f 1dbc
000000b0: 2add 5e3b 48cd 33bd b2a7 85bd afc7 483c
000000c0: 4dd5 9b3b 957d 6fbd 8f2d 673d 734f 4abd
000000d0: 7bd0 233c 1a6e 3f3c 42ed 983a 4a1a 0b3d
000000e0: fdb7 253c 6a8a 673d 2107 273d ce4e 40bd
000000f0: c7ad 913d 1aef 85ba 8d7a b63c e2a9 733c
00000100: 1300 0fbc 12d2 97bb eae0 c43c 9eab acbd
00000110: 24f6 543d 8639 e03c 3b11 1e3d 0f6b 913c
00000120: 2db9 173d d236 d4bc c8f2 703b 01a4 4e3d
00000130: 1b44 98bd 9162 853d 959c 43bc e244 fbbc
00000140: f305 7fba 03a4 273d 2d82 97bd 4b2f 91bd
00000150: b805 aebc 622c a8bd 90f6 9f3b c12a 15bd
00000160: ca16 e8bc 3002 c5bc 98d6 fdbc 9900 613d
00000170: 8af2 ae3d 4639 8ebc 04be 2fbc 941b c83c
00000180: db02 6d3c 7744 b03c 2125 c83c 9a25 083d
00000190: 457a 28bd 996e 2d3b b4ef 8e3c 9343 033a
000001a0: a2f7 b33c 169c a0bd 5537 e03c 6755 beba
000001b0: dfd4 42bd b258 963c 13b1 94bc 8928 4cbd
000001c0: 1287 61bd dda9 833d 045b 90bc 37f1 f3bc
000001d0: 7897 8bbd c73a 33bc f327 20bc 79aa c43c
000001e0: 8aaa 02bd 23a2 323d eb83 1c3c 84fc 3b3d
000001f0: b804 36bd edb2 3c3d d879 5abd c12a a7bd
00000200: 10ff 1dbd 9bfb 973c 9215 74bd e7e0 87bb
00000210: b615 d13c 74f2 3c3d 2d99 203d 4b3a bc3d
00000220: b24c 68bd ae40 973c 26f7 003d 5eff 303a
00000230: 217a 12bd 0b42 4c3d b88b c03c 0f00 933c
00000240: 10f2 d0bd 6206 6f3d ecbc 413d 1a5d 153c
00000250: bcaf bdbd e64a 3ebd b11c d43c b22a 4dbd
00000260: a692 d63c c92a 85bc ca80 d33d 2d30 643d
00000270: 45ca a53c 166f 743d bd6a 17bd 20d2 8fbd
00000280: 48dc 8ebc 2314 3fbc c252 4d3d eceb fc3a
00000290: a52d 2cba 61ee 523d dd65 083d 1cd5 a03b
000002a0: bca4 48bd de96 97bd 3af6 08bc 5074 8bbd
000002b0: 39da 87bd 4db0 98bc 2871 09bc 547c 96bd
000002c0: e587 043c e3c1 063d 95aa afbd 092e 54bc
000002d0: f054 a33d 7149 503d 1839 6dbd d4e7 9dbd
000002e0: c769 60bd 9759 71bd 82d7 70bd 2e4f ad3d
000002f0: ef69 cfbb 038e 88bd fbff 6ebd 16ea 6ebd
00000300: 1d02 92bd d7ec a939 2b4f 37bc 639f bc3c
00000310: 971a 743c 0134 8d3d e047 0f3d 6e1b 56bd
00000320: 3bfb 5abd 936d 9d3b 0c55 19bc f4b2 a6bc
00000330: 7e3d d43c 2dd8 cfbc c9b4 7abd b6dc 073d
00000340: 0664 d23c b878 373d aaf2 96bc 096e 30bd
00000350: b99f 9ebc e888 67bd ec37 30bd 7a06 92bd
00000360: ee0c e23c 3eb0 86bb d1b0 643d 804c 96bd
00000370: 1e2f 2dbd 5f8d abbb da00 a53c 6e4c 1c3d
00000380: d1bf 05bc f8ad 743d 305d 8dbd 7377 a9bd
00000390: a533 30bd f250 85bc 3051 123d dbdb ae3d
000003a0: 0950 d43d d247 77bd 7219 de3b c10a 113d
000003b0: f250 9c3d 706e 1dbd 7ce9 debb d58f bfbc
000003c0: 488b 3fbd 3804 103d af2d 50bd 89ec 09bd
000003d0: 7884 abbc b0b5 92bd 15fc 15bd c4ed 3a3d
000003e0: 61d2 c938 b0b9 d53c e4b0 8bbd f3dc 82bc
000003f0: 841c 783b 2ae7 463d 0ae9 463c 1abe 0fbd
0.0895939 0.04151823 0.059405714 -0.020601397 -0.028050754 -0.023414064 -0.03640445 0.03245179
-0.032489114 -0.023296986 -0.008718033 0.044695616 0.04438551 -0.03287132 0.018526223 -0.0051268768
0.0186869 0.026242984 -0.020492613 0.028614173 0.0005237821 -0.034569528 -0.022224268 0.04145861
-0.050421838 -0.004570704 0.000330391 -0.060596813 -0.016988719 -0.0019738863 -0.06807791 -0.0331912
-0.041449662 -0.032708928 -0.03873674 -0.057029817 0.015817475 -0.04232034 -0.017149378 0.06221268
-0.006199948 -0.018281845 0.03033836 -0.00958616 0.0034006336 -0.043896943 -0.06526126 0.0122546395
0.004755652 -0.058469374 0.056439932 -0.049392175 0.009998436 0.011683965 0.0011667388 0.033960618
0.010114667 0.056528486 0.040778283 -0.046950154 0.071132235 -0.0010218353 0.022275234 0.014872046
-0.008728045 -0.0046331966 0.024033029 -0.08431171 0.05199255 0.02737118 0.03859065 0.017751245
0.03704183 -0.025905047 0.0036765803 0.050449375 -0.07434865 0.06512941 -0.0119391875 -0.030672494
-0.00097283645 0.0409279 -0.07397876 -0.070890985 -0.021242961 -0.0821159 0.0048816875 -0.036417726
-0.02833118 -0.024048895 -0.030986115 0.05493221 0.085423544 -0.017361294 -0.010726456 0.024427213
0.014466013 0.021517022 0.024431767 0.033238985 -0.04113223 0.0026463626 0.017448284 0.0005007323
0.021968666 -0.07842271 0.027370134 -0.0014521301 -0.04756629 0.01835284 -0.018150842 -0.049843345
-0.055060454 0.06428883 -0.017621525 -0.029778106 -0.06816 -0.010939307 -0.00977515 0.024007069
-0.03190092 0.043611657 0.009552936 0.045895115 -0.044438094 0.046069074 -0.053338856 -0.081624515
-0.038573325 0.018552592 -0.059590884 -0.0041466835 0.025523048 0.04612966 0.03920858 0.09190806
-0.056713767 0.018463459 0.0314857 0.000675192 -0.035761002 0.04986767 0.023504123 0.017944364
-0.1020242 0.058355696 0.04729931 0.009116435 -0.09262034 -0.046458147 0.025892587 -0.050089546
0.026192974 -0.016255753 0.10327299 0.055710007 0.020238051 0.059676252 -0.036967028 -0.070225
-0.017439023 -0.011662516 0.050127752 0.0019296384 -0.0006568081 0.051496867 0.03330027 0.004908217
-0.048985228 -0.074018225 -0.008359486 -0.06809294 -0.066334195 -0.018638754 -0.008388795 -0.073479325
0.00808904 0.03289975 -0.08577458 -0.012950429 0.07975185 0.05085129 -0.057915777 -0.07710233
-0.054788377 -0.05892333 -0.058799274 0.08462368 -0.006329767 -0.066677116 -0.05834959 -0.05832871
-0.07129309 0.0003241065 -0.011188309 0.02302522 0.014898918 0.068946846 0.034980655 -0.052272253
-0.05346225 0.004804322 -0.009358656 -0.020349003 0.025908228 -0.025371635 -0.061207566 0.03316947
0.02568246 0.04479286 -0.018426258 -0.043073688 -0.019363271 -0.05652705 -0.04302208 -0.071301416
0.027594056 -0.004110365 0.055832688 -0.0733881 -0.042281263 -0.0052353586 0.020142008 0.038158827
-0.008163408 0.059736222 -0.0690254 -0.08274736 -0.043018002 -0.01627395 0.035721958 0.08538028
0.10366828 -0.060371228 0.0067779357 0.035410646 0.076326266 -0.0384354 -0.006802736 -0.023384014
-0.04676369 0.035160273 -0.050824817 -0.033672843 -0.02093719 -0.071635604 -0.036617357 0.045636907
9.623613e-05 0.02608952 -0.068208486 -0.015974497 0.0037858794 0.0485603 0.012140522 -0.035093404

layer1.0.bias f4 [256]
00000000: a46c 903d e1e6 1cbd ec3b fb3d 8310 0fbe
00000010: 0a1e 743e 8bc9 40be 099b 62be 48b1 873d
00000020: 4006 bcbd 12f2 533e 43c9 93bb 740b c5bd
00000030: 6c3d 89bd 284d 6fbe 85cd 813e fb84 b4bd
00000040: 377a ee3d abcd 14be 7e11 143e 0ce5 2fbd
00000050: 3a0d 70be 1299 28be 1dc5 8bbc 6ac0 8d3e
00000060: 0984 98bd 21fc c93d 844d ffbd 16cc 43bd
00000070: 8ce9 aebd d3a9 5f3e 34da 6c3e 5304 233e
00000080: 043a 02be 3f4b 033e 524c bd3d b5c4 6b3d
00000090: a469 383e 9471 82bd a9b5 babd 4d1b 40be
000000a0: 1930 513e 6eae ae3e 9be5 75bc a680 0f3d
000000b0: 1789 a5bd 1936 0d3e c227 f43d 7d10 113e
000000c0: 86ea e13c 6df8 c2bd 1ce0 9cbd 962f 20be
000000d0: 4c10 cfbd d6f9 0d3e 678a 85be 26d6 873e
000000e0: 3d85 a0bd f7c2 39bd 24d8 813e 5e90 52be
000000f0: 96a8 4abe 179e 3d3e 19ad ccbd 34d4 21be
00000100: fe5a 063e f85d 473e 9509 803e 71cb 77be
00000110: 3f64 94bd c153 2c3e b4d5 133d 979e 11be
00000120: 790c a1bd 80e3 44be 88b3 693c 9b3b a7bc
00000130: 7987 ad3e 5f98 15bd 88ed a73d 5056 91bc
00000140: 6ef7 8e3e 0fa5 17be 36e2 9abd 1581 363d
00000150: 73ce 89bd 6d73 90be 08e7 36be 6bd5 1c3d
00000160: 2891 f6bd e076 25be 1b0e 0abe 7f91 373e
00000170: 2863 26be 687a ad3d 483d 193e 25c1 673d
00000180: eae3 5b3e bb63 dfbc 3d84 193e 985a b33d
00000190: e33d a23d 6e85 f5bd fcf4 493e 0173 1abe
000001a0: 836d 12be c3fa 2bbe 89b8 29bc e414 84be
000001b0: 1c23 c7bd df96 9d3c dc4e 593e eb13 64be
000001c0: 595d 5abe 6082 edbd ccda f0bd bbb1 5b3d
000001d0: b0fd d3bd 64fa e93d a21b 00be 0734 3e3e
000001e0: ef90 b6bc b824 063e f837 0dbd 23ae e73d
000001f0: bbeb 8abd 8b59 b5bd 5cc1 c33c 876e 883e
00000200: 3bba 31be 4b3d f6bd a15a 493e 4edc 353e
00000210: 7c01 3abe ae2b 873e 89d4 ffbd beea 26be
00000220: 0634 a0bd 63c6 563e f955 f23d 62b6 ca3d
00000230: be5f 3bbe 62cc 32be 86f4 b4bd 80e1 f0bd
00000240: 0380 8c3e cf29 1fbe bb99 053e 90cd 183e
00000250: 8c2a 48be 4a99 05be 2a96 52bc 1591 c03d
00000260: a5ce 843e 1097 e5bc 0c80 82be 7eee 67be
00000270: 44dc 9f3d 8782 79be 9679 593e 6481 a5bd
00000280: dc69 c7bd c233 03be a810 0a3e a32a 0bbe
00000290: 22fa 48bc fe34 4bbe 537b ac3c 2c35 80bd
000002a0: c248 963d f5a1 ccbd 5886 863d c1e9 303e
000002b0: 936e 2bbd bf57 1dbe 6e65 2cbe 7907 bd3d
000002c0: f172 cabd 41fb c0bd 5758 25bd 3bde 8c3d
000002d0: 2e19 2dbe 36f7 e5bd d64f f23b 26a7 53be
000002e0: 30c2 d73d b37f 03be daea 663d eb29 d8bd
000002f0: 935a 4b3e eb36 b33d 88f8 8d3d 13c8 88bd
00000300: 98cf 533e 1807 f4bb a995 37be 26c0 e53c
00000310: c8ab 30bd 3848 b7bc 4289 3a3d 2532 11be
00000320: 575e 5abe 3a93 233d 25b0 3fbe e180 083e
00000330: 06a4 28be 50cd 5e3e e6a4 c33d fe86 07be
00000340: c6cf bb3d c8ee 7a3e 2547 0bbe 8fd8 063e
00000350: 0bf4 53be b577 c53d b470 efbd 07fd 21b9
00000360: 4d4c ecbd 6ea1 bc3b bd75 463e 6150 3a3c
00000370: 60c1 a73d 9a3d dcbd 7f17 1b3e 3043 20be
00000380: de97 82bd f2d7 aa3d cc3d 693e b8fd f8bd
00000390: 4f16 e13d f29b 783e 4695 40be 4211 b93c
000003a0: cdc5 2bbb f210 0c3e d55c 0fbc 3289 953e
000003b0: 2f38 01be 70b5 55be f42d 8dbe f115 7ebd
000003c0: e439 4fbb 7ae6 3e3e 8dca 323d 0d52 40bd
000003d0: e5e6 09bd a466 95bd fd55 103e ac8b 863e
000003e0: 788d 08be 929e 233e 08e2 f33d a418 28bd
000003f0: 902f 2b3e b7af e3bd 6b2b f53d d0bb 64be
0.070519716 -0.03830612 0.122672886 -0.13971142 0.23839584 -0.18826883 -0.22129454 0.066256106
-0.091808796 0.20697811 -0.0045100763 -0.09621325 -0.067011684 -0.23369277 0.2535211 -0.088144265
0.116444044 -0.14531581 0.14459798 -0.042943045 -0.23442546 -0.16464642 -0.017061764 0.27685863
-0.07447059 0.09862543 -0.12465957 -0.047802053 -0.08540639 0.21842127 0.23130113 0.15919618
-0.12717444 0.12821673 0.092430726 0.05756064 0.18009049 -0.063693196 -0.0911668 -0.18760414
0.20428504 0.34117454 -0.0150083555 0.035034798 -0.080827884 0.13790168 0.11921646 0.14166446
0.02757765 -0.0952004 -0.07659933 -0.15643153 -0.1011053 0.13864836 -0.26082155 0.2653057
-0.07837913 -0.04535195 0.25360215 -0.20562884 -0.19790873 0.18517338 -0.09993953 -0.15803605
0.13120648 0.1946944 0.2500731 -0.241987 -0.07245683 0.16828825 0.036092475 -0.14220653
-0.07863707 -0.1922741 0.014263995 -0.020414164 0.3389242 -0.036522266 0.08199602 -0.017741352
0.2792315 -0.14809059 -0.075626776 0.044556696 -0.0672883 -0.28213063 -0.17861569 0.03828947
-0.12039405 -0.16158628 -0.13481943 0.17926596 -0.16248763 0.08470613 0.14964783 0.05658068
0.21473661 -0.027269235 0.14991851 0.08757514 0.0792196 -0.1198834 0.1972236 -0.15082933
-0.14299588 -0.16794877 -0.010358938 -0.25797188 -0.097234935 0.01923698 0.21221489 -0.22273223
-0.21324672 -0.11597133 -0.11760482 0.053636294 -0.103511214 0.11424711 -0.12510541 0.18574534
-0.022285907 0.13099945 -0.034477204 0.11312511 -0.06783243 -0.088549696 0.023895912 0.26646826
-0.17356198 -0.120234095 0.19663478 0.17759821 -0.18164629 0.26400512 -0.1249171 -0.16300485
-0.07822423 0.20974116 0.11832804 0.09898068 -0.18298241 -0.17460778 -0.08835702 -0.11761761
0.27441415 -0.15543292 0.13046925 0.14922166 -0.1954748 -0.13046756 -0.012853185 0.09402672
0.25938907 -0.028026134 -0.25488317 -0.22649571 0.07805684 -0.24366198 0.21237788 -0.0808132
-0.09736988 -0.12812713 0.13482916 -0.13590483 -0.012266668 -0.19844434 0.0210549 -0.06260142
0.07338096 -0.09991828 0.06568593 0.1727667 -0.0418535 -0.15365504 -0.16835567 0.09229941
-0.098852046 -0.09422923 -0.04036745 0.068783246 -0.16904137 -0.11228792 0.007394771 -0.20669231
0.10535085 -0.12841682 0.056376316 -0.1055487 0.1985877 0.08750709 0.06932169 -0.06678786
0.2068466 -0.0074471347 -0.17928185 0.028045725 -0.043132573 -0.022373304 0.045541056 -0.14179285
-0.2132505 0.039935328 -0.18719538 0.13330413 -0.1646882 0.21758008 0.09552936 -0.13235089
0.09170489 0.2450515 -0.13601358 0.13168548 -0.20698564 0.09641973 -0.11691418 -0.00015448417
-0.11537991 0.0057565486 0.19380851 0.011371703 0.0819118 -0.10753937 0.15145682 -0.1565063
-0.063766226 0.083419695 0.2277748 -0.12157768 0.10990583 0.24278238 -0.18806943 0.022591237
-0.0026210428 0.13678339 -0.00875016 0.29206234 -0.12619089 -0.20869994 -0.27574122 -0.062032644
-0.00316202 0.18642607 0.0436502 -0.04695325 -0.033667464 -0.07294968 0.14095302 0.26278436
-0.13335216 0.15978459 0.119083464 -0.041039124 0.16717362 -0.11117499 0.11971172 -0.2233727

feature.0.0.weight f4 [128, 256]
00000000: 3ab4 87bd c0a0 0f3c 73e1 903d 20e1 9cbd
00000010: a1ae 2ebd ec0c 983d e02c 88bc b5c2 e03b
00000020: 18c3 5dbd 135e 69bd 05d4 a3bc dae9 9c3d
00000030: ed16 0dbc 9689 88bd 9518 8e39 1b6e dcbc
00000040: 0509 70bc a23b 01bc 2e04 d7bb 6058 e13b
00000050: 24dd 46bc bf12 663c 04d9 2b3b 2fcd c63c
00000060: 242f 8dbb c9c6 843c 9e8f 53bd 3dae 83bd
00000070: 98f9 9cbc f784 6abc 4e2c efbc 588a 3d3d
00000080: 8d44 2f3c 3af9 653d d8d1 93bb 15b4 b13c
00000090: 75fe db3b 0081 363d 8e7a a33c d404 88bd
000000a0: 86d9 c13c 52f4 05bc 27c9 99bd 9cad f3bb
000000b0: 4136 f8bb 391a 9b3d 7ee7 86bd 62b7 edbc
000000c0: 654d 92bd 76a1 89bd a106 d93c 890d eebc
000000d0: 1495 713d 4298 423d 8b0f 0ebd 7a6e 3f3d
000000e0: c3e3 b9bb 5068 adbd 03e2 0abd feb9 33bd
000000f0: d63d 7ebd 8cd1 74bd 315e 563d 248f 803d
00000100: 4332 4abd 2122 96bc 7f98 9e3c 6f43 8e3b
00000110: adbf b83c 34fb 08bd 7426 813d 3349 2ebc
00000120: c102 ee3c 86fd 373d 7c9a 77bd 4a50 32bd
00000130: ff74 183d d258 493c 91c3 6bbd 3531 74bd
00000140: cd8e 513d a4e2 50bd 4549 a3bd 6009 14bd
00000150: 9699 1fbd dc96 483d f38c 013d a59a b53c
00000160: edd2 2dbd 4bc7 32bd 2cde 9f39 7cc3 243d
00000170: ce90 43bd 0d57 893c 511f 233b 12ec 5d3c
00000180: 5c95 b0bb 5077 3fbd f6b3 bfbc af19 90bc
00000190: 8b75 86bc fba0 193d e7e7 a93c 20ca 6bbc
000001a0: 4c61 fcbc 01b5 a63c 4ccc 253d 1f36 b6bd
000001b0: ef1e eabb be4f 39bd aab1 913b eeff 533c
000001c0: 90d6 79bd 2eda 68bc dfac 83bd 24f8 cebc
000001d0: bd2f 133d 5681 7b3d 9e85 e4bc 1117 aabc
000001e0: 38bc fd3c 93d3 a0bd f601 a0bc 451d 8abd
000001f0: dfd6 bc3c f14b 1dbc 7318 9fbc 64b4 ce3b
00000200: 716f 6bbd 53bc 81bc a96f abbd 853f 12bd
00000210: 82c1 bdbc 2553 65bd 4e4a 4bbb e929 4f3d
00000220: a145 243b 44c0 553d 0c12 2fbd 09f7 e83c
00000230: ae77 24bd d003 02bd 2a39 5cbd fdb2 743c
00000240: 1f18 77bc 58f1 413d 9308 bfbc ce71 69bd
00000250: 19c8 063c d7db a1bc a0e0 79bd 9114 20bd
00000260: b423 83bd 0c44 003d a08a 3fbd 2ec8 d3bc
00000270: f07b 6cbd e5c0 313d 4af6 013d 9f1d 883c
00000280: 35a7 51bd 0188 c43c d059 87bd 778b ba3c
00000290: 94f1 95bd 0f37 483d 90e7 c5bb 3b6f 2bbd
000002a0: 6a7b 25bc d452 2bbd 559c db3b f135 e6bc
000002b0: fcb4 de3b 912b 74bd 2407 6e3c df63 653d
000002c0: e5ce 853c 85b4 75bc 4eb0 aa3b 49de 83bd
000002d0: 1202 e9bc 828d 77bb 6ac4 f33c d7fc 53bc
000002e0: 76af 36bd dab5 703c fb98 dd3c 31a8 20bd
000002f0: 2122 43ba 15ec 393c 5353 12bd c761 193d
00000300: ec57 e2bc c41a dc3b e766 e4bb 33aa 4ebc
00000310: 5832 2dbd f809 f9bc 8df0 bc3c d7e9 75bb
00000320: b047 adbd 33bc 4bbd ca98 113d 642d 33bd
00000330: 6d3e c83c 7deb b73c c72a 4b3d e25d 9bbc
00000340: 903b 75bd 1ec2 62bd f7ed 93bd d67e e6ba
00000350: ac43 893d e4db ba3c 4091 7739 7faa 6cbc
00000360: 314d 863d faac be3b 1ee7 6bbc 90d5 30bd
00000370: 012e 243d cef4 6bbd bda1 ddbc fd05 bfbc
00000380: 291c 393d d1e6 2cbd 8afc 1bbd 827f 1bbd
00000390: a274 423d caa0 bf39 86c9 80bd df02 4d3c
000003a0: 90d3 32bd 69b9 193d c864 9e3c aa7d c03b
000003b0: 5579 f43b 032e 57bc 02e8 8cbc 7bf6 a83c
000003c0: 86b4 acbb 187a d83c 19e4 17bd 04dc 933d
000003d0: 41e1 553d d42e cdbc cb46 efbc 6fdb 363d
000003e0: b589 8abd b19d 7abd 3e4b 693c bb1d 96bd
000003f0: 3e5e 283c 6b18 0e3d 9592 bc3c 7d59 5cbd
-0.06626172 0.008766353 0.07074251 -0.07660127 -0.042647008 0.0742434 -0.01662296 0.0068591484
-0.054141134 -0.05697448 -0.01999856 0.07661791 -0.008611423 -0.066668674 0.00027102666 -0.026907971
-0.014650588 -0.007887753 -0.0065617776 0.00687699 -0.012137685 0.014042555 0.002622188 0.024267761
-0.004308598 0.01620807 -0.051650636 -0.06429718 -0.019161984 -0.014313928 -0.02919593 0.046274513
0.010697496 0.056145884 -0.0045110993 0.021692315 0.0067136833 0.044556618 0.0199559 -0.06641546
0.023663294 -0.008175926 -0.0750907 -0.0074364673 -0.007574827 0.07573361 -0.065871224 -0.029018108
-0.07143668 -0.06720249 0.026492419 -0.029059188 0.058980063 0.047508486 -0.03468279 0.046736218
-0.0056729033 -0.08467162 -0.033906948 -0.043878548 -0.06207069 -0.059770152 0.05233592 0.06277302
-0.04936434 -0.01832682 0.019359825 0.004341535 0.022552336 -0.03344269 0.063061625 -0.010637569
0.029054048 0.044919513 -0.060450062 -0.0435336 0.03722095 0.012289243 -0.057559554 -0.05961724
0.051161576 -0.05099739 -0.079729594 -0.036141753 -0.03896483 0.048971996 0.03162856 0.022168467
-0.042437483 -0.04364709 0.00030492374 0.04022549 -0.04774552 0.016765142 0.0024890492 0.013545053
-0.005388899 -0.046744645 -0.023401242 -0.017590372 -0.01641347 0.03750704 0.020740462 -0.014391452
-0.030808114 0.020349981 0.040478036 -0.088970415 -0.007144801 -0.045242064 0.004446228 0.012939436
-0.06099564 -0.014212174 -0.06429457 -0.025264807 0.0359342 0.06140264 -0.027895745 -0.020762952
0.030973539 -0.078528546 -0.019532185 -0.06743864 0.023051677 -0.009600625 -0.019420838 0.0063081253
-0.057479326 -0.01583687 -0.08370907 -0.03570511 -0.02316356 -0.055987496 -0.003101963 0.050577078
0.0025065916 0.052185312 -0.04274182 0.028438108 -0.040153198 -0.031741917 -0.053765453 0.014935252
-0.0150814345 0.047349304 -0.023319518 -0.0569933 0.008226418 -0.019758148 -0.061005235 -0.039082114
-0.06403294 0.031314895 -0.046763062 -0.025852289 -0.057735384 0.04339685 0.03172902 0.016615687
-0.05118485 0.023990633 -0.06608927 0.02277158 -0.07321468 0.048880633 -0.0060395673 -0.041854125
-0.010100225 -0.041827038 0.006701986 -0.028101893 0.0067964774 -0.05961186 0.01452807 0.056003448
0.016334007 -0.0149966525 0.0052090054 -0.06438882 -0.02844337 -0.0037773554 0.029756743 -0.0129387
-0.044600926 0.014691794 0.027050486 -0.0392229 -0.0007443745 0.01134779 -0.035723995 0.037446763
-0.027629815 0.006717058 -0.0069702747 -0.012613821 -0.04228434 -0.030400261 0.023063922 -0.0037523413
-0.08460939 -0.049740028 0.0355461 -0.04374446 0.02444383 0.022451157 0.049601343 -0.018965665
-0.059871256 -0.055360906 -0.072231226 -0.0017585407 0.067023605 0.02280993 0.00023609865 -0.014444946
0.06557692 0.0058189603 -0.014398364 -0.04317242 0.040082935 -0.05760651 -0.027054662 -0.023318285
0.04519287 -0.04221231 -0.038082637 -0.037963398 0.04747451 0.00036550156 -0.062884375 0.012512892
-0.043658793 0.037530337 0.019335166 0.0058743553 0.007460753 -0.013133529 -0.017200474 0.020625344
-0.0052705435 0.026425406 -0.037082765 0.07219699 0.052216772 -0.025046743 -0.029208561 0.044642862
-0.06764547 -0.061185542 0.014239131 -0.073298894 0.010276375 0.034691256 0.023019115 -0.05379628

feature.0.0.bias f4 [128]
00000000: b73f 273d 7b6f dd3d 1648 ba3d 9930 283e
00000010: 1ff2 333e bbec 533e c734 5cbc c892 bdbd
00000020: e812 983c ee84 803e 628f b9bd 01ab 913d
00000030: d006 96bd ae68 eabd 9ee2 67bd f82c 8b3e
00000040: 237c 15bd d17a 913e 6286 03be b2d4 8b3d
00000050: 8be2 f0bc 85fe 88bc 65f2 c23d 6ac9 db3d
00000060: 125c ce3d 8214 63bd 213e 703d cb9f b13b
00000070: ded9 3bbd ce90 b03d 6b68 4b3e 7a22 073c
00000080: fe1f 5bbd fd0b 37bd 8502 32bd 721b e0bc
00000090: 84ec 183e 823e 893e d247 5ebd f6fb ac3d
000000a0: 5c58 293e a9bb 613d 717c f93b 0365 56bd
000000b0: e058 dfbd 140a 83bc 53e9 a23d 9ec7 6f3e
000000c0: 4310 04bd b606 c33d d9d2 79bd 520a c6bc
000000d0: ef0d e73d 2313 453e cbf6 1b3e aae6 163e
000000e0: f6d9 613e d64c 093e 5203 a73d 7210 993c
000000f0: 9e2d 4c3c b78e cd3d 80fa 12bd f79f 2c3e
00000100: dcd8 513d 9916 94bc dd70 e1bd c4d9 47bd
00000110: 5c67 e23d 0357 1fbd 05f7 073d 11c4 7c3d
00000120: 74e6 46bd aa2f 44bd 0ace 743e 4640 0e3d
00000130: 52bd 95bc be1d d2bc a433 e3bc 1e35 a9bd
00000140: bbdb b8ba 9418 79bd a45c 7abc 7487 ff3c
00000150: 11a7 9b3a 8ee3 833d e7e8 233e 2318 3e3e
00000160: 54a7 57bd 6868 f03a 2d56 bbbb de7b 363e
00000170: 817d d4bc 4f84 ecbd 1366 933c a5f2 053d
00000180: 80cc 07bd df1f b0bd 4415 7ebc 49c8 dbbd
00000190: 5720 4f3e d38f 8ebc 125b 7d3e 3dd1 d53c
000001a0: 08f4 a6bd 722b 4abe 5b3b 273e e0a6 7bbd
000001b0: 481f 6bbd 174e 8bbd 9df2 f43d 9c7f 30bd
000001c0: 6f2f dbbb e486 9fba c3f6 6cbc 776d 2e3d
000001d0: a564 413d 987a 61be 32e8 b5bc abe0 3c39
000001e0: c013 aabc c65d 6e3e 4f52 303d cec5 6e3d
000001f0: a82a 043e cdde c5bc 141f aebc c05b 0ebc
0.040832248 0.10812279 0.090957806 0.16424789 0.1757283 0.20695774 -0.0134403175 -0.09256512
0.018563703 0.25101417 -0.09060551 0.071126945 -0.07325518 -0.11445747 -0.056612603 0.27182746
-0.03649534 0.28414014 -0.12844232 0.06827678 -0.0294049 -0.016722927 0.09518889 0.10731776
0.10076155 -0.05543948 0.058653 0.00542066 -0.04586207 0.08621369 0.19864051 0.008247966
-0.053497307 -0.044689167 -0.043459434 -0.027356837 0.14933974 0.26805502 -0.054267712 0.08446495
0.16537613 0.055110607 0.0076137115 -0.052342426 -0.109056234 -0.015996017 0.07954659 0.23415992
-0.03224207 0.095227644 -0.060992096 -0.024174843 0.112819545 0.19245581 0.15230863 0.14736429
0.22055802 0.13408217 0.0815493 0.0186846 0.012462048 0.10036986 -0.035883427 0.16857897
0.051232204 -0.018077182 -0.11007855 -0.04879166 0.110548705 -0.03890134 0.03319456 0.06171042
-0.04855962 -0.04789702 0.23906723 0.034729265 -0.018278752 -0.025648948 -0.027734585 -0.082620844
-0.0014103571 -0.060814455 -0.015280876 0.031192519 0.0011875351 0.06439887 0.16006814 0.18563895
-0.05264981 0.0018341662 -0.00571706 0.17820689 -0.025938751 -0.11548673 0.017993009 0.032702107
-0.03315401 -0.08599829 -0.015508 -0.10731561 0.2022718 -0.017402565 0.24741772 0.02610075
-0.08152014 -0.19743136 0.16331236 -0.06143844 -0.05740288 -0.06802004 0.11960337 -0.043090448
-0.006689004 -0.0012170938 -0.014463129 0.042584863 0.047215123 -0.22019422 -0.022205446 0.00018012772
-0.02076137 0.23277959 0.043047246 0.05829411 0.12906897 -0.024154091 -0.021255054 -0.008688867

feature.0.3.weight f4 [256, 128]
00000000: 54ca 943d 2b1a 50bd 2928 b2bb e021 503d
00000010: 26e1 5e3d 7fdc a1bd 9d7f 56bd 989b cfbb
00000020: 355f 873d 7f75 df3c 4d6a 1f3b 1c4b 75bc
00000030: 26d8 7b3d fb70 1b3c 5901 e4bd eb5d b43c
00000040: 6ee4 33bd b75e a5bd 0f36 85bc 1b8c 1bbd
00000050: b1b4 82bd db56 1ebc 2116 d6bc c73d 1fbd
00000060: 1baf 423c 4738 43bd 613a b8bc 8fed b4bd
00000070: e64d ab3c 4524 bbbc ca46 bdbd f609 4cbb
00000080: 5b7b 5b3d 30f4 d33c 962a 313c 8e22 6c3d
00000090: 3912 40bd 0c44 11bb 826e 44bd a59a f3bc
000000a0: 33c1 033d 580c 453d 97e8 c2bd 3625 9bbd
000000b0: 4999 8d3d e2cf 6fbd a734 b3bc 58cb adbd
000000c0: 0d80 fd3c e0d4 a0bd 1420 9c3c 0e91 4ebd
000000d0: 88f8 403d 1a74 733c 026c 74bd d50e 303b
000000e0: f5e3 4fbd 3860 d2bb 57bf 3cbd 6963 47bd
000000f0: ffe6 e5bc 84bd 8ebd c34d b1bd e9ac c73c
00000100: 535e b5bd 80f0 b6bc 6193 9a3d efd9 603d
00000110: e976 363d 0cbc 98bd 8907 933c 10c6 87bd
00000120: ef83 89bc b539 483d 8fef 233d d185 eb3a
00000130: 9306 bebb e106 e7bb 0919 933d 8df1 86bb
00000140: f205 8bbd ce07 04bd e18f af3d d05d e73c
00000150: dcae f03c bde1 9cbc 0ed8 133c 252d b4bc
00000160: 844a 8a3d 91ba 2f3d f153 083d 742a 353d
00000170: 523a 143d 9c32 bebb d719 483d a32a 5fbd
00000180: 949f ef3c 7f9a bdbd 4281 263d 8d21 67bd
00000190: 9b10 26bd e283 653d 2e47 d3bd a87b 00bd
000001a0: f464 08ba 9061 b4bd 3bff bbbd e235 89bd
000001b0: f302 75bd c8df a6bd 2579 be3c 8d52 de3c
000001c0: fb48 073c ab89 933c 0e17 b6bd 5e7c 7b3d
000001d0: 31a4 58bd a198 c83c 92e7 8d3c 9d3a aabd
000001e0: ed52 a63d d997 fdbc c95f b0bd 95db 823d
000001f0: 04c1 09bd 1f79 adbc 7c10 933d 8567 4dbd
00000200: 5c2b 6d3d 1338 8f3d 447d 4e3c 785f 893d
00000210: 88ee 2e3d 75b9 e43c c5f4 d1bc 059d 8cbc
00000220: 431c 883d 82be 6bbd 7d59 61bd 8bed 8dbd
00000230: baa0 57bd 30c5 b83c 2786 8b3d 5009 af3c
00000240: f834 e33b 3e30 35bd 90d5 81bd a52e 4fbb
00000250: e603 61bc 9e2c 853d f925 903c 6e38 babc
00000260: 8c3e a6bd aff9 863c 511e 43bd a03d 5e3d
00000270: e5ef b0bd a60b 873c fb54 bebd a995 9ebd
00000280: 85b1 47bd 9e3b b43c a58f 0c3d 6f33 7bbd
00000290: e367 85bd ee70 303d 5562 90bc 7c1a 49bd
000002a0: 5bd0 38bd 1f5a bfbc ec9a 203d d554 e93c
000002b0: 3bc1 76bd 87a9 57bd c8c3 a4bd 8b34 40bd
000002c0: 0254 37bd d593 e3bc 7c09 873d 1905 563a
000002d0: ddb3 acbd 7605 d0bd e462 6d3d 78a1 873d
000002e0: a035 813c 8f93 6a3c e134 b4bd 23a3 1abd
000002f0: 565e 8d3d 5751 7b3d dbb2 58bc c4aa 4ebd
00000300: fa27 97bd 0ed5 6cbd 6051 9e3c 637c 00bd
00000310: 193a bc3c 2d3b 9bbd 7d8d 92bb 443b b93a
00000320: 0c92 9dbd 3688 a8bc 88e5 b8bd 07ba 883c
00000330: 4159 073d a354 4f3d e2bd 06bd 35bc 9cbc
00000340: cc55 ae3d 48f5 b9bb 43ad 8b3b 2edb d93c
00000350: 93a4 5f3c 9025 d7bd 2b95 e7bc 99a5 0c39
00000360: 5869 4b3b bc53 9ebd 5aa5 233d 0404 123c
00000370: 248d 2bbd d635 c2bd b67b 7e3d fdc2 10bd
00000380: acdc 4d3d d18d 7abd 683b 803d a93e 533d
00000390: 1f9b 993b 9f74 bbbd 190e ccbd 8ed3 263c
000003a0: 2bfb a0bd ead7 6e3d e117 353b 0506 01bd
000003b0: b21c 53bc f37b a2bc bf28 84bd 3e9b 1fbc
000003c0: 48c5 e1bb 01d1 2e3d 710c 5fbd 6791 933b
000003d0: 594b c83c f41f eebc b332 873d a824 04bd
000003e0: 5fa3 51bd 3b6f 903d a384 883c 8d88 3cbd
000003f0: 3630 a93d e5d8 863d 8825 173d 4f2c a9bd
0.072651535 -0.050806206 -0.0054369164 0.050813556 0.054413937 -0.079033844 -0.052367795 -0.006335687
0.06609956 0.027277706 0.0024324835 -0.014971521 0.061485432 0.009487386 -0.111330695 0.02201744
-0.04391902 -0.08074706 -0.016261129 -0.03797541 -0.063821204 -0.009664263 -0.026133599 -0.038877275
0.011882569 -0.047661092 -0.022488775 -0.08834373 0.020911168 -0.022844443 -0.092420176 -0.0031133867
0.053584438 0.025873274 0.010813376 0.05765014 -0.04689238 -0.0022165803 -0.04795695 -0.029736826
0.03216667 0.048107475 -0.09517019 -0.07575457 0.069140024 -0.058547862 -0.021875693 -0.0848605
0.030944848 -0.07853103 0.019058265 -0.050431304 0.047112018 0.014859224 -0.059673317 0.002686431
-0.050754506 -0.0064201616 -0.046080913 -0.04867879 -0.02806425 -0.06969741 -0.0865741 0.024374442
-0.088558815 -0.022331476 0.075476415 0.054895338 0.044546995 -0.07457742 0.017947929 -0.06629574
-0.016786544 0.04888316 0.040023383 0.0017968958 -0.0057991236 -0.0070503806 0.071825095 -0.0041181506
-0.06788243 -0.032234006 0.085723646 0.028242975 0.029380254 -0.01915061 0.009023679 -0.021994183
0.06752494 0.042902533 0.033283178 0.04422994 0.03618843 -0.005804373 0.048852768 -0.05448402
0.029250897 -0.092579834 0.040650614 -0.05642848 -0.04054318 0.056033976 -0.10316311 -0.031367928
-0.00052030315 -0.08807671 -0.09179541 -0.066997305 -0.059817266 -0.08148152 0.023251126 0.027138973
0.008257146 0.018009981 -0.08891116 0.061397903 -0.05289096 0.024486842 0.017322335 -0.08311961
0.081212856 -0.030956196 -0.086120196 0.06389538 -0.03363134 -0.02117592 0.071808785 -0.050147552
0.05790268 0.06993117 0.012603108 0.06707662 0.04270795 0.027920464 -0.02562941 -0.017164716
0.066460155 -0.05755473 -0.055016983 -0.06930073 -0.052643515 0.022554964 0.06812697 0.021366745
0.0069338046 -0.04423546 -0.06339562 -0.0031613496 -0.01373384 0.06502651 0.017596232 -0.022731986
-0.081173986 0.01647648 -0.047636334 0.05425799 -0.08639506 0.016485047 -0.092935525 -0.07743389
-0.04875328 0.022001084 0.034316678 -0.061328348 -0.065139554 0.04307645 -0.017625013 -0.049097523
-0.04512058 -0.023358403 0.039210245 0.028482834 -0.060242873 -0.05265191 -0.08045155 -0.04692511
-0.04475785 -0.027780453 0.06593606 0.0008164212 -0.08432744 -0.101572916 0.057955638 0.066225946
0.01577264 0.014317407 -0.08799148 -0.037753236 0.06902759 0.06135687 -0.013226236 -0.050455824
-0.07380672 -0.057820372 0.019325912 -0.031368624 0.022976922 -0.07579646 -0.004472433 0.0014132042
-0.07693872 -0.020572763 -0.090281546 0.016690267 0.033044104 0.050617825 -0.03289593 -0.019132713
0.08512458 -0.0056749918 0.0042625978 0.02659377 0.013650077 -0.10505211 -0.028269371 0.0001341313
0.0031038132 -0.07730815 0.039952613 0.00891209 -0.04188265 -0.09482925 0.0621297 -0.035342205
0.050259277 -0.061170403 0.06261331 0.05157343 0.0046876813 -0.09153103 -0.099636264 0.0101822745
-0.078604065 0.05831138 0.002763264 -0.03149988 -0.012885259 -0.019834494 -0.06453084 -0.009741602
-0.006889973 0.04267979 -0.054455224 0.0045034173 0.024449991 -0.02906797 0.06601467 -0.03226152
-0.051181193 0.070524655 0.016664809 -0.046028662 0.08261149 0.06584338 0.036901027 -0.08260404

feature.0.3.bias f4 [256]
00000000: 1fb8 023d 7787 14be d56d 1fbe cf4a 92bc
00000010: 4c17 853e 6962 ff3d bed9 84bd a851 adbd
00000020: 717a e0bb 6294 953d 65ee cc3e d0c1 2b3e
00000030: d5fc abbd 1745 873e 939d b8bd 629c 76bd
00000040: 86b7 9a3d 6f73 823e 78fb 2abe 08f7 1d3e
00000050: a4ab f8bc a532 5c3d 5cae 0ebe a49b 0b3e
00000060: 9471 993e 7c44 253e c2e2 3dbd 05da d4bd
00000070: 158f acbd 1dac 763e e15d 98bd eada 30bd
00000080: 0690 613e 3663 4fbd 6a50 2dbe 0ee0 8ebd
00000090: 0989 853e 0ad6 16bb 773d 1c3d ce16 02bd
000000a0: 6c8f 24be b16b 1dbe be6f 4d3d 8fff 813e
000000b0: 70dd 25bc f707 35be 418b 03be bc29 d5bd
000000c0: d23e 24bd f02e c2bd 1d3d 813e abab 6a3e
000000d0: dd54 5e3d 8d0a 9fbc 1d54 413c 0007 473e
000000e0: f99d 7c3b a9e5 e1bd f33c 1bbe dadc 9c3d
000000f0: 7cad 8ebd 61ae 253c b478 b5bd a4c9 963d
00000100: bbae 3d3e 6148 6e3e 8a57 18be c3d6 693e
00000110: 78cf 043e 6865 19be 31d3 41bd 1a52 df3d
00000120: 67b2 85bc 0239 c9bd 2e80 243e 0939 4b3e
00000130: 94c7 dd3d 50fa dcbc d6a7 2ebd 9a8c 403d
00000140: 7a25 1f3d 53d3 7c3e 1e40 24be 7b12 a4bd
00000150: a95c 933e 6591 053e 1bc7 d13d d443 283e
00000160: e2a2 1dbe f6b9 55bd e124 4f3d 6508 823e
00000170: 3004 143d 02c3 653e f517 ffbd 0dd9 9d3e
00000180: 7641 cbbc 9c21 f13c dce1 d43d 2da7 153e
00000190: f7f2 2f3e f9e2 ab3e db28 98bd 2f3a 73bd
000001a0: a00b fdbc a2cd c2bd d794 913e 2ab4 b9bc
000001b0: e123 29bd ba3e 103d e01c 0fbb 336c 9fbd
000001c0: 7be8 ab3e 2587 733e 2c8a 963e 8827 603d
000001d0: 0829 973e ae03 8aba 01d9 fc3d 0056 613e
000001e0: ab87 7a3c fce1 2dbd 6324 d43d 55d6 03be
000001f0: 4525 ac3c 7ad0 fa3c 3c38 9f3d ea8d 3c3e
00000200: b082 963e b4a0 ecbd b813 99bd 8be7 04be
00000210: 9254 8dbe cf20 333e a335 213e fd05 1ebe
00000220: b1fb 95bd c03e 16bd 2343 cb3c 1019 733e
00000230: dec6 863e a86d cb3d c92c d8bc 7141 4d3c
00000240: e859 0cbe 775b 29be adaa 243d f313 2fbc
00000250: 0c8d 29bd a191 2cbd 50ab f1bd b5e1 0abd
00000260: 25ba 123e 2286 653c aed3 b0bd abba 64bd
00000270: e97b ba3e b7cc 383d e17d ee3d 3d57 25be
00000280: 06f2 bebd 9c4a f8bb 2d03 b6bd 1b9f 82bc
00000290: a452 debc 93e1 c5bd 6dcd 443e d8bf 7c3e
000002a0: 0e82 a63d 0fbf 27be 626a 8c3d 1504 81bc
000002b0: 9ca7 cb3b ee45 c73c 7b5b 07be 3c50 ea3d
000002c0: 3a0e 13bd 6e3e a3bd 0a19 203d c64d 2dbd
000002d0: 7c7d 3b3c 4f30 a83e b880 b43e 45b7 173e
000002e0: 5119 5cbd 427b 3fbd cde5 4fbc 0329 b9bd
000002f0: 4b94 123b 12a9 803c 2c56 e63c ade7 14bd
00000300: 1e5a 823e 77df 2ebd c071 fabd 00fc ccbd
00000310: fed5 ef3d 8741 823c e458 153e 5d1d 68bc
00000320: 23b3 513e e230 7fbd f1fb a93d 44ad b73d
00000330: b010 dabb 1263 9abc b5ba 3fbd e840 12bd
00000340: a25a 273d 1122 18bd ea6b 753e 2343 cb3b
00000350: c7f1 d03d 568a 06be 3047 9b3a e124 32be
00000360: b1bb c83d 2a1f 55be 262f ed3d d3f1 0b3e
00000370: 34a8 4abe 4ea6 153e a9a9 343e 886d 9ebd
00000380: c7ed 0e3e b282 f1bd dc36 493b 2bd3 8e3d
00000390: b6ec a83e 8807 a43e 408b b13d 79f0 d13d
000003a0: dfa6 433d f001 8e3d 9f39 b13d b000 66bc
000003b0: 453a 98bc 27c3 8b3e a92b 39bd ee54 5a3e
000003c0: 3a6b 07be 288f e7bd cd5c 07be f64b 11be
000003d0: 48da e5bc 6eb0 703b 395b 2abe 66d1 093e
000003e0: 13d5 4e3e ce8a c4bc 954e 8fbd 63c3 17be
000003f0: 1a25 293e 850d cdbd 91aa 083e 9f26 1cbe
0.031913873 -0.145048 -0.15569241 -0.017857937 0.25994337 0.12469942 -0.064868435 -0.0846284
-0.0068505337 0.073036924 0.4002563 0.16773152 -0.08397833 0.264199 -0.0901443 -0.060207732
0.075545356 0.25478694 -0.1669749 0.15426266 -0.030355282 0.053759236 -0.139337 0.13633591
0.29969466 0.16139406 -0.04635883 -0.103931464 -0.08425728 0.24089094 -0.07439781 -0.043177523
0.22027597 -0.050631724 -0.16925207 -0.06976329 0.26081112 -0.002301576 0.038144555 -0.03176003
-0.16070336 -0.15373112 0.050155394 0.25390288 -0.010123596 -0.1767882 -0.1284609 -0.10408351
-0.040098973 -0.09481609 0.25241938 0.22917049 0.05428015 -0.01941421 0.011799839 0.19436264
0.0038546307 -0.11030132 -0.15159969 0.076593116 -0.06966683 0.010112376 -0.08860913 0.07362679
0.18523686 0.23269798 -0.14877144 0.22835831 0.12969768 -0.1498009 -0.04732055 0.109043315
-0.01632042 -0.098253265 0.16064522 0.19845976 0.10829082 -0.026974827 -0.04264053 0.047009088
0.0388541 0.24689989 -0.16040084 -0.08011337 0.28781632 0.13043745 0.102430545 0.16432124
-0.15394166 -0.0521793 0.05057228 0.2539703 0.036136806 0.22437671 -0.12455741 0.3082966
-0.024811488 0.029434972 0.10394642 0.14614554 0.17182527 0.33571604 -0.074296676 -0.05938166
-0.030889332 -0.095118776 0.28433868 -0.022668917 -0.041293982 0.03521607 -0.002183728 -0.07784309
0.33575806 0.23782022 0.29402292 0.0547252 0.29523492 -0.0010529661 0.12346078 0.22005463
0.015291135 -0.042451844 0.10358503 -0.1287473 0.021013865 0.030616987 0.07774398 0.18413511
0.29396582 -0.11554089 -0.07474464 -0.12978952 -0.27603585 0.17492984 0.15743117 -0.15431972
-0.07323397 -0.036680937 0.024812287 0.2374003 0.263236 0.09933025 -0.026388543 0.0125278095
-0.13706172 -0.16538797 0.04020183 -0.010685909 -0.04139428 -0.04213107 -0.118002534 -0.033906657
0.14328821 0.014009031 -0.08634125 -0.055842083 0.3642266 0.045117106 0.11645103 -0.1614656
-0.09323506 -0.0075772535 -0.088873245 -0.015945008 -0.027139015 -0.096621655 0.19218989 0.24682558
0.08130275 -0.16381477 0.068562284 -0.015749017 0.006215049 0.024325337 -0.13218491 0.11441085
-0.03590224 -0.07970892 0.03908638 -0.0423105 0.011443492 0.32849357 0.35254455 0.14816006
-0.05373508 -0.046748407 -0.012689066 -0.090410255 0.0022366222 0.015705619 0.028117262 -0.036353756
0.2545938 -0.04269358 -0.12228727 -0.10009003 0.11710738 0.015900386 0.1458469 -0.014167157
0.20478491 -0.062302478 0.08300007 0.08968595 -0.0066548213 -0.018846069 -0.046808917 -0.03570643
0.04085792 -0.037141863 0.23966947 0.0062030717 0.10202365 -0.13138708 0.0011846777 -0.1739688
0.09801424 -0.2081267 0.115812585 0.13666467 -0.19790727 0.14614221 0.17642845 -0.07735735
0.13957892 -0.11792506 0.0030702865 0.06973871 0.32993096 0.32036996 0.08669138 0.10250945
0.047766563 0.06933963 0.086535685 -0.01403825 -0.018582473 0.27297327 -0.045207653 0.2132146
-0.13224497 -0.11306602 -0.13218994 -0.14189133 -0.028058186 0.0036726254 -0.16636361 0.13458785
0.20198469 -0.023991968 -0.0699741 -0.14820628 0.1651806 -0.10012344 0.13346316 -0.15249108

classifier.0.weight f4 [2, 256]
00000000: d8ff 9bba d9f3 62bd 13d6 1d3d ffa2 e0bc
00000010: 14a0 7d3d 098a 3abc 4224 563d 67be 05bb
00000020: cc9d b73c f241 223d ae3a 013e 3d73 ae3d
00000030: d03f 0dbd c6e4 9d3d 7cd8 97bc 4481 a6bd
00000040: 84ff 643c 59fe 9f3d f170 3abd 3df3 ce3c
00000050: dc23 193c 82f0 123d e2cd 70bd c552 1dbd
00000060: 29cc 613d d2f1 b4bc 8c8f 67bd 6382 b1bc
00000070: 7039 293d 02f0 bb3d 68da 66bd f5ab 5c3d
00000080: b36a edbc c9ab 07bd 1af1 febc aeb8 b9bc
00000090: 1fe0 aa3d ad63 82bc 23f1 433d 9c3b 20bd
000000a0: eff0 4cbd c9b6 1fbd 935e 123c 5b16 4d3d
000000b0: d308 1cbd fc7d 7dbc 88f2 a3bc b02a 2cbd
000000c0: f91b 893d 699b e83c 7fd6 873d a758 8c3d
000000d0: 3136 11bd 05a1 d93b 5b60 38bd 3c94 2e3d
000000e0: 9d20 543d cbcb 1ebd a031 93bd d4a6 173d
000000f0: ab99 4cbd 3abc e43c b43a 4dbd 5d63 71bb
00000100: e4f3 b6bc 23bf 853d 6f40 72bc b17f 983d
00000110: ee4e b13c 4c27 653b ad1e 26bd 5700 833d
00000120: c090 ab3c 2c0d a3bb 4c07 343d db89 2b3c
00000130: 40b8 a93d 509e 573c a02e 5e3b 3f1d 25bb
00000140: 4f14 d3bc 930e be3d d220 e63c 2638 43bd
00000150: c333 a03d bf53 243d 231d 0f3d 5b74 a53d
00000160: 80ff aabc ba40 d2bc 04f4 813c 25c0 783c
00000170: 60d6 4f3d 8b38 d63d ae03 ec3c 6915 d43c
00000180: 661e 6bbc b9c1 0f3d 4521 383c 60c3 acbc
00000190: 2d94 c03d b54a a63d ea69 e0bc 4fac a13c
000001a0: 83f7 553d a2cc e83c aea9 b33d f8e3 23bd
000001b0: 519a 7cbd db98 b7bc 3d37 1ebd 038e af3b
000001c0: 197b e03d a5f9 883d 0710 8c3d 8977 d13c
000001d0: 934f 8e3d 424f 46bc f48e 3a3d 7bb5 c6bb
000001e0: 524e 91bc f044 1b3d ea86 173d 3e80 6fbc
000001f0: af4f 6abc 2cdb 673d 434a 10bd dc98 243d
00000200: 29c9 a33d ddfa 4bbd da0a 31bd a193 14bd
00000210: 4006 56bd 31bc 9f3d b132 333d 78b6 463c
00000220: b8d7 293d b942 f63c a450 bebc 45fa a13d
00000230: e597 5c3d 966b 9d3c 01ac f0bc 2abf 753b
00000240: eb27 21bd 74f2 70bd 377d 14bc 61e4 3ebd
00000250: 3bc0 9abc f18b 24bd 8fc3 2bbd 0fde 13bd
00000260: 0cae e2ba e75e c43c c9bc 43bd c16e 603a
00000270: 12fd 043e 653b acbc f28f ad3c c38d 4fba
00000280: a856 9dbd e5ab 5cbd 8daa 883a d391 abbd
00000290: 2ad7 44bd 4e97 7d3a bc98 eebc 2285 40bc
000002a0: 7843 803c 0f51 90bd caf6 813c 4b67 49bd
000002b0: fce5 dcbc 498a 823d 233e 77bd c7dc 143d
000002c0: 8d7a 9c3c 04ee b13c 7e00 6bbd 43c4 ca3c
000002d0: 3587 93ba 8972 d43c c196 f63d e574 e33d
000002e0: 193f 423c 1cdc cb3c 5701 05bd 5ccb 87bb
000002f0: 7943 463c f261 b03c df3c 633d 0970 1dbd
00000300: fca8 d83d 9d6d 673d 49f2 51bd dbf6 a03c
00000310: a3ec 8e3d 56cb 473c c168 5b3d 87c6 e13c
00000320: 2b3e b63d 5984 64bc a35d ec3c 261f 513d
00000330: f743 c63c e020 c33b f9ee afbc 20a2 86bc
00000340: bcef 043d 9708 02bd 1dcf 233d 4788 32bc
00000350: e661 3bbd 2fc1 25bc 4759 14bd 4152 8a3c
00000360: 0c9e 043d 26fe 593b f86c 70bd 3218 ac3d
00000370: 09cb d0bc 19b2 4f3d 861a c83d fdf8 46bd
00000380: 7315 f13c eda5 95bd aa88 153d 4f8f 133d
00000390: a8f8 9b3d 6109 0a3e f9ee 993c b6b6 f43c
000003a0: dfd6 0c3d 671a b63c ff12 133b 60e6 2b3d
000003b0: 03c4 13bc 5ce9 8e3d ee4c 963c 5034 813c
000003c0: ab94 f5bc a221 843a de8f 4ebd ed90 16bd
000003d0: 44fd 87bd 805f 063d 73af 85bb 0c88 44bd
000003e0: dad1 ca3d 2aef 69bd dcc2 20bd fcde 2fbd
000003f0: af44 af3c fac4 6c3d 0608 93bc 6bd7 67bd
-0.0011901809 -0.055408332 0.038534235 -0.027421473 0.06192024 -0.011385449 0.052280672 -0.0020407678
0.02241411 0.03961367 0.12620041 0.08518074 -0.034484684 0.07709651 -0.018535845 -0.08130124
0.013976935 0.07812185 -0.045517866 0.02526247 0.009346928 0.035873897 -0.058790095 -0.038409013
0.055126343 -0.022087965 -0.05653338 -0.021668619 0.041314542 0.09176637 -0.056360632 0.05387493
-0.028981542 -0.03312281 -0.031120826 -0.02267107 0.08343529 -0.01591667 0.047837388 -0.039119348
-0.05003446 -0.038992677 0.008933681 0.050070148 -0.038094353 -0.015471932 -0.020013109 -0.042032897
0.066947885 0.028394418 0.06632709 0.068528466 -0.03545207 0.0066415095 -0.045013767 0.042621836
0.051788915 -0.03876857 -0.071871996 0.037024334 -0.049951237 0.027921785 -0.05010481 -0.0036832907
-0.022333093 0.06530597 -0.01478587 0.0744623 0.021644082 0.003496605 -0.0405566 0.06396549
0.020943046 -0.0049759354 0.04395227 0.010469879 0.08287096 0.013160303 0.0033902302 -0.0025194434
-0.02576652 0.092801236 0.028091822 -0.04766097 0.07822373 0.04011893 0.034939896 0.08078834
-0.020873785 -0.02566563 0.015863426 0.01518253 0.050741553 0.104600035 0.028810348 0.025889115
-0.014350509 0.035096858 0.011238401 -0.021089256 0.09403262 0.08119718 -0.027394254 0.019735483
0.052238 0.028417889 0.08772598 -0.04001233 -0.061670605 -0.022411754 -0.038626898 0.0053575053
0.10960979 0.06688241 0.068389945 0.025569694 0.06948771 -0.0121038575 0.045546487 -0.0060641146
-0.017737541 0.03790754 0.0369939 -0.014617978 -0.014301225 0.056605503 -0.03522707 0.04018484
0.07997353 -0.04979979 -0.04322324 -0.036273602 -0.052252054 0.077995665 0.043749515 0.012128465
0.04146549 0.030061113 -0.023231812 0.07909063 0.053855795 0.01921634 -0.029378893 0.0037497976
-0.03934471 -0.05882497 -0.009063057 -0.046604518 -0.01889049 -0.04017252 -0.041934546 -0.036100443
-0.0017294302 0.023971034 -0.04778746 0.00085614255 0.12987164 -0.021024415 0.021186803 -0.00079175475
-0.07682544 -0.05387487 0.0010426805 -0.08377423 -0.04805676 0.000967373 -0.029125564 -0.011750491
0.015657172 -0.07046711 0.015864749 -0.049170773 -0.026965134 0.06374032 -0.060361993 0.036343362
0.019101406 0.02171994 -0.057373516 0.024751788 -0.0011255505 0.02593352 0.12040473 0.1110628
0.011855864 0.02488523 -0.03247198 -0.0041441154 0.012101048 0.021531079 0.055477973 -0.038436923
0.10579106 0.05650102 -0.05125645 0.01964896 0.069787286 0.012194475 0.053566698 0.027560486
0.08898576 -0.01394757 0.028853243 0.051055096 0.02420233 0.0059548467 -0.021476256 -0.01643473
0.03245519 -0.031746473 0.03999244 -0.010896749 -0.04574766 -0.010116859 -0.036217954 0.016884925
0.032377288 0.0033263057 -0.05869767 0.084030524 -0.02548744 0.050706957 0.09770684 -0.048577297
0.029429173 -0.073070385 0.036507286 0.03602534 0.07615787 0.1348014 0.018790709 0.02987228
0.034384605 0.022229386 0.0022441742 0.04196775 -0.009018901 0.069781035 0.01834723 0.015772015
-0.029978117 0.0010080824 -0.05043017 -0.036759306 -0.066401035 0.03280592 -0.004079753 -0.047981307
0.09903307 -0.05711285 -0.039248332 -0.042937264 0.021395056 0.05780504 -0.017948162 -0.056601923

classifier.0.bias f4 [2]
00000000: da8e 703e 531b 8cbe
0.23491994 -0.27364597
