baselines/models/reveal/bigvul_best_f1.model (torch, 474255 bytes, 8 tensors)

layer1.0.weight f4 [256, 200]
0.049769826 0.049227964 0.061343126 -0.017009245 -0.038276035 -0.07051377 -0.014238893 0.01880125
-0.020269949 -0.029874096 0.012734893 0.053716958 0.045466308 -0.018596346 -0.014423562 0.005691835
0.028554544 0.03816933 -0.024287753 0.021822395 -0.026243372 -0.011582179 -0.03541341 0.053657044
-0.04883808 0.035275668 -0.020907128 -0.047328856 -0.012468331 0.031446155 -0.06381573 0.011651516
-0.015201172 0.0043651485 -0.028889954 -0.0147982 0.05460407 -0.059382107 -0.051754717 0.046855137
-0.0055894917 -0.0035349343 0.021096768 -0.02140912 0.0088868225 -0.027154122 -0.003580346 0.02738573
-0.0036383555 -0.054714695 0.058888845 -0.06887216 0.0133860335 -0.014093417 -0.046697833 0.050605696
-0.000930323 0.023498138 0.036129512 -0.036388516 0.051123388 -0.015232511 0.07032154 0.032245386
-0.025365228 -0.03730201 -0.031735174 -0.03259239 0.053794492 0.061676502 0.04098496 0.08180567
0.027837846 0.012389687 -0.015879318 0.063847736 -0.055821396 0.06277269 -0.013254528 -0.018601047
0.01861703 0.056710765 -0.06238319 -0.047944065 -0.01731732 -0.08477785 0.025902892 -0.04996452
-0.052034307 -0.027853563 -0.053519644 -0.0035481444 0.04359784 0.010520756 0.021643419 0.013452215
-0.0032751448 -0.0118340505 0.020760078 0.053941406 -0.051913112 -0.03351245 0.059751283 -0.025088808
0.038188238 -0.046408806 0.021629956 0.008279797 -0.06182928 0.00045518653 -0.020117123 -0.053700875
0.00034212822 0.034409445 0.024154572 -0.032571353 -0.029052816 -0.0077140103 -0.030247116 -9.494244e-05
-0.030584278 0.057144657 0.041019488 0.03351014 -0.0070801075 0.05930771 -0.06719184 -0.019486671
-0.06618832 0.022475157 -0.044928048 -0.045573298 0.024371546 0.060333833 0.04501717 0.045584317
-0.0776254 0.020499062 -0.034018625 0.004803776 -0.0026989116 0.056506373 0.054907586 0.0012771895
-0.076244615 0.04546003 0.038393483 0.027072057 -0.064488396 -0.037205063 0.054365426 -0.045971036
0.034305207 0.0023756057 0.05025472 0.006675272 0.030193247 0.021556776 -0.0505581 -0.05144548
-0.07555536 -0.015980469 0.01546638 -0.029323429 0.030591274 0.0320395 0.027292334 -0.042132523
-0.05764784 -0.046162397 0.02639646 -0.06459612 -0.053969145 0.010664818 -0.014494076 -0.045966625
0.010478813 0.02513743 -0.06823706 -0.01966282 0.043425433 0.06751448 -0.04863231 -0.018374912
-0.045206465 -0.021627417 -0.04332184 0.036111645 -0.014375508 -0.04542781 -0.042324774 -0.06674554
-0.060188167 -0.0008904526 0.004602814 0.041411605 0.075710356 0.04384062 0.05654853 -0.027508838
-0.06036099 -0.005305953 -0.012898246 0.0053642318 -0.011247571 -0.03325063 -0.036778066 -0.02719475
0.04602833 0.05243112 -0.052704487 -0.062944226 -0.0061361543 -0.024558568 -0.02714004 -0.0901065
0.040298622 -0.034329895 0.04722169 -0.048266776 -0.061708134 -0.014395493 0.00048456373 0.045504335
0.0012628019 0.050677128 -0.042022366 -0.05509676 -0.02949663 -0.03946625 0.03197628 0.048042465
0.072102614 -0.037261784 -0.015994616 -0.0021164147 0.04828672 -0.02098506 -0.013533543 0.0031662998
-0.061171573 0.03333675 -0.07070772 -0.06714784 -0.003717576 -0.044237066 -0.024789577 0.034639597
0.019828293 0.007892405 -0.061913848 -0.034171317 -0.03456005 0.060670562 0.0556217 0.006549644
00000000: 72db 4b3d 43a3 493d ee42 7b3d f956 8bbc
00000010: 55c7 1cbd 8669 90bd 3f4a 69bc 1405 9a3c
00000020: 2a0d a6bc 85ba f4bc 03a6 503c 5006 5c3d
00000030: e13a 3a3d 5d57 98bc ce50 6cbc 9382 ba3b
00000040: 38eb e93c 7257 1c3d 1cf7 c6bc e1c4 b23c
00000050: 57fc d6bc 2ec3 3dbc a70d 11bd 7dc7 5b3d
00000060: 700a 48bd 387d 103d 6d45 abbc e7db 41bd
00000070: f847 4cbc afcd 003d d2b1 82bd 00e6 3e3c
00000080: 560e 79bc 8509 8f3b a0aa ecbc 2674 72bc
00000090: 84a8 5f3d a73a 73bd c1fc 53bd 2ceb 3f3d
000000a0: 0e28 b7bb 5baa 67bb 21d3 ac3c 2e62 afbc
000000b0: 099a 113c 5272 debc 3da4 6abb 0a58 e03c
000000c0: 7a71 6ebb 841c 60bd 6e35 713d d90c 8dbd
000000d0: 1851 5b3c 13e8 66bc 3a46 3fbd eb47 4f3d
000000e0: ebe0 73ba 2b7f c03c 8afc 133d 200c 15bd
000000f0: c266 513d c891 79bc bd04 903d bd13 043d
00000100: bdca cfbc fec9 18bd befc 01bd 997f 05bd
00000110: 9d57 5c3d 80a0 7c3d d8df 273d bb89 a73d
00000120: 320c e43c 1dfe 4a3c 5815 82bc 9ac2 823d
00000130: faa4 64bd f88e 803d 8529 59bc 3961 98bc
00000140: be82 983c 8c49 683d 8485 7fbd ff60 44bd
00000150: 0ddd 8dbc 02a0 adbd 4d32 d43c 99a7 4cbd
00000160: ed21 55bd 282d e4bc 6a37 5bbd fc87 68bb
00000170: a693 323d 405f 2c3c 8a4d b13c ae66 5c3c
00000180: d0a3 56bb 9be3 41bc 0a11 aa3c aaf1 5c3d
00000190: d8a2 54bd 5a44 09bd c3bd 743d 0b87 cdbc
000001a0: 456b 1c3d 2917 3ebd 4e31 b13c fca7 073c
000001b0: b340 7dbd 1aa6 ee39 aacc a4bc 73f5 5bbd
000001c0: ac5f b339 ebf0 0c3d cfdf c53c 8a69 05bd
000001d0: 2c00 eebc cfc5 fcbb cdc8 f7bc d61b c7b8
000001e0: e18b fabc 8410 6a3d 0d04 283d ee41 093d
000001f0: 3f00 e8bb a4ec 723d e09b 89bd 83a2 9fbc
00000200: be8d 87bd d21d b83c 7906 38bd 11ab 3abd
00000210: d6a6 c73c 9c20 773d ed63 383d 9fb6 3a3d
00000220: 11fa 9ebd a6ed a73c 1d57 0bbd fe68 9d3b
00000230: 39e0 30bb 3a73 673d c7e6 603d 5e67 a73a
00000240: 2326 9cbd 4c34 3a3d 7c42 1d3d 38c6 dd3c
00000250: 7e12 84bd 5664 18bd 48ae 5e3d 204c 3cbd
00000260: 9e83 0c3d 0db0 1b3b e5d7 4d3d 3dbc da3b
00000270: d457 f73c d697 b03c 0316 4fbd 7fb8 52bd
00000280: c5bc 9abd 79e9 82bc b366 7d3c b037 f0bc
00000290: 8d9a fa3c da3b 033d 2c94 df3c 2793 2cbd
000002a0: 2420 6cbd c814 3dbd 643d d83c f84a 84bd
000002b0: c00e 5dbd 7dbb 2e3c 9078 6dbc 8047 3cbd
000002c0: 54af 2b3c 03ed cd3c dfbf 8bbd ec13 a1bc
000002d0: dede 313d 0845 8a3d ac32 47bd fc86 96bc
000002e0: 6a2a 39bd fb2b b1bc 3e72 31bd cee9 133d
000002f0: 4087 6bbc 8312 3abd be5c 2dbd e3b1 88bd
00000300: de87 76bd 436d 69ba 34d3 963b 379f 293d
00000310: 080e 9b3d 3992 333d 6e9f 673d 375a e1bc
00000320: 163d 77bd 8fdd adbb 2a53 53bc 70c6 af3b
00000330: bb47 38bc d031 08bd 99a4 16bd 86c7 debc
00000340: 3488 3c3d 04c2 563d a9e0 57bd e7e8 80bd
00000350: cb11 c9bb 0d2f c9bc ca54 debc c289 b8bd
00000360: 2b10 253d 819d 0cbd 886b 413d 62b3 45bd
00000370: abc1 7cbd 13db 6bbc 0b0d fe39 c162 3a3d
00000380: 9a84 a53a d292 4f3d a51f 2cbd 24ad 61bd
00000390: eba2 f1bc 5da7 21bd 8ff9 023d 2dc8 443d
000003a0: 89aa 933d d09f 18bd 2407 83bc 8cb3 0abb
000003b0: 4cc8 453d dce8 abbc cbbb 5dbc b281 4f3b
000003c0: 0b8f 7abd 1e8c 083d 36cf 90bd cf84 89bd
000003d0: 93a2 73bb ed31 35bd 8313 cbbc 40e2 0d3d
000003e0: f26e a23c 254f 013c 6099 7dbd 39f7 0bbd
000003f0: d78e 0dbd b281 783d 94d3 633d 659e d63b

layer1.0.bias f4 [256]
0.047117174 0.1302128 0.035203192 -0.01441193 0.0064633815 -0.07423335 0.08752677 -0.0321164
-0.083210945 0.06488933 0.14149293 0.0040434045 -0.09323156 -0.07916866 0.13875031 -0.043118548
-0.03572399 -0.052024182 0.01937011 0.15124208 -0.093595944 -0.064823344 0.036209717 -0.035625625
0.13292253 -0.041115053 0.20302464 0.035847504 0.02023774 0.08595273 0.1065714 -0.060844813
-0.072993085 -0.029510595 -0.080914564 -0.08254003 0.117800966 0.059299514 0.05892533 -0.081124455
0.14151207 0.047487143 0.025804682 0.022266077 0.0019637104 0.0007725542 -0.10709512 -0.034719937
0.047346614 0.07097984 0.11794751 -0.038487263 -0.037335284 0.06368734 -0.14163306 0.055607896
-0.027345737 0.074288175 0.047661874 0.07329921 -0.13625845 0.030793635 0.00196815 0.011515905
-0.08216544 -0.002242051 0.032409508 -0.06494616 -0.017608648 0.18813814 0.005006892 -0.014894435
-0.07424041 -0.083478555 -0.102252476 -0.08840107 0.01271588 -0.0770191 -0.10518901 -0.09706723
0.012053742 -0.06568161 0.13041759 -0.10545491 -0.12588716 -0.10820314 -0.03256487 -0.070088066
-0.02270515 -0.10635937 -0.008759933 0.08892525 -0.021125235 -0.10028526 0.06236003 -0.10568252
-0.06114603 0.11243768 -0.12411294 0.023141334 -0.050362956 -0.0354221 0.024875328 -0.007288646
-0.017161572 0.1214939 0.08675785 -0.0570999 -0.011704574 -0.09214098 -0.021240084 -0.05250416
-0.12108079 -0.034416527 0.03116875 0.055303082 0.003005276 0.05468153 -0.015905978 -0.02219789
0.067221306 0.043331083 -0.08539596 -0.004169081 0.067776084 0.008450221 0.051707193 0.10768046
-0.08354271 -0.018842546 0.12856689 -0.025718533 -0.13440001 0.0055094874 0.052976515 0.040823195
0.18748295 -0.029617863 -0.055128403 0.043395665 -0.025879458 -0.048407506 -0.07527458 -0.01266287
0.11216601 -0.10974464 0.15195997 -0.09902866 0.10114593 -0.0851101 -0.070834085 -0.006789879
0.00052295876 -0.07889179 -0.09552689 -0.102829054 0.0025912307 -0.082797915 0.14287333 0.06074979
0.030522054 -0.0437199 -0.0009526712 -0.024603155 0.0033197883 -0.0555628 0.096140176 -0.013867289
-0.032882027 -0.053168267 0.17633744 0.17767924 -0.05149547 -0.012383491 -0.09549388 -0.06473301
-0.12643826 0.0011890734 -0.1686973 -0.060814165 -0.010316353 -0.028662553 0.07869057 0.050765038
-0.049399026 -0.012591482 -0.081460685 0.1422204 0.063627124 0.033035427 0.13437964 -0.03273082
0.04503844 0.018078472 -0.06990824 0.05554954 0.05818753 -0.01126844 -0.03864107 -0.04695398
-0.07049328 -0.10733947 0.16105689 -0.08044228 -0.10555184 -0.07177802 -0.08896662 -0.13558987
0.022436684 0.17167492 -0.11243329 -0.006160068 0.050833352 -0.030402217 -0.049750168 0.052236624
0.015786216 -0.17455892 0.012813836 -0.094853014 0.14840099 0.13238229 0.06731347 0.10620616
-0.049463574 -0.054087147 -0.0012294877 0.0044346736 -0.092093855 0.0856525 -0.07894772 -0.08308406
-0.016904527 0.16635309 -0.055869758 0.13837561 0.0055225627 -0.10640362 -0.10039132 0.11412686
-0.029943956 -0.01977939 0.08253773 -0.030844247 -0.004876862 0.05337853 0.05246534 -0.023293307
-0.04234194 -0.09497243 -0.026212024 -0.03167056 0.05547173 -0.13962074 -0.0029356468 -0.13412946
00000000: f0fd 403d 8156 053e 3931 103d 0420 6cbc
00000010: c6ca d33b a807 98bd 3c41 b33d 7c8c 03bd
00000020: 806a aabd b2e4 843d 86e3 103e 897e 843b
00000030: 30f0 bebd 2e23 a2bd 9014 0e3e 139d 30bd
00000040: 5253 12bd 4f17 55bd 11ae 9e3c 34df 1a3e
00000050: 3baf bfbd 1ac2 84bd a450 143d 2dec 11bd
00000060: d81c 083e 4268 28bd b1e5 4f3e d5d4 123d
00000070: 9ec9 a53c fc07 b03d 1b42 da3d 6938 79bd
00000080: 667d 95bd 34c0 f1bc 89b6 a5bd bf0a a9bd
00000090: a241 f13d 0ce4 723d b05b 713d 9424 a6bd
000000a0: 8ae8 103e e181 423d 5764 d33c 5967 b63c
000000b0: 98b1 003b 3c85 4a3a b054 dbbd 7e36 0ebd
000000c0: 86ee 413d e15d 913d 778e f13d d2a4 1dbd
000000d0: e2ec 18bd 826e 823d 4208 11be 1bc5 633d
000000e0: 2b04 e0bc 6624 983d 1939 433d e51d 963d
000000f0: 5687 0bbe ef42 fc3c 14fc 003b 35ad 3c3c
00000100: 5b46 a8bd 60ef 12bb d5bf 043d 7e02 85bd
00000110: 0340 90bc 49a7 403e db10 a43b ca07 74bc
00000120: 5b0b 98bd cef6 aabd bf69 d1bd 9f0b b5bd
00000130: 4456 503c 31bc 9dbd 566d d7bd 2fcb c6bd
00000140: 0f7d 453c 1484 86bd 308c 053e bef8 d7bd
00000150: 90e8 00be 9c99 ddbd be62 05bd 558a 8fbd
00000160: 2700 babc f1d2 d9bd d285 0fbc 711e b63d
00000170: d40e adbc 5c62 cdbd 3b6d 7f3d 1470 d8bd
00000180: 4274 7abd ba45 e63d ed2e febd e592 bd3c
00000190: 6349 4ebd c416 11bd 58c7 cb3c 98d5 eebb
000001a0: 6d96 8cbc cbd1 f83d 1aae b13d 96e1 69bd
000001b0: 8bc4 3fbc 69b4 bcbd afff adbc 9a0e 57bd
000001c0: 35f9 f7bd 58f8 0cbd 9b55 ff3c 7c85 623d
000001d0: 2af4 443b bdf9 5f3d 414d 82bc 59d8 b5bc
000001e0: 53ab 893d ef7b 313d 14e4 aebd c99c 88bb
000001f0: 30ce 8a3d cc72 0a3c ecca 533d 9387 dc3d
00000200: 7118 abbd af5b 9abc 0aa7 033e acaf d2bc
00000210: 28a0 09be ee88 b43b e7fd 583d 3936 273d
00000220: 88fb 3f3e 29a1 f2bc 52ce 61bd a7bf 313d
00000230: 2801 d4bc f346 46bd 8f29 9abd ed77 4fbc
00000240: 4bb7 e53d ccc1 e0bd 659b 1b3e 8acf cabd
00000250: 9925 cf3d 344e aebd 7611 91bd a27d debb
00000260: 2b17 093a 0592 a1bd 9aa3 c3bd 0a98 d2bd
00000270: a3d1 293b f491 a9bd 634d 123e c6d4 783d
00000280: 6309 fa3c a313 33bd afbc 79ba 8e8c c9bc
00000290: ce90 593b d295 63bd 24e5 c43d a033 63bc
000002a0: 4eaf 06bd f8c6 59bd cd91 343e 8cf1 353e
000002b0: eaec 52bd 20e4 4abc 4c92 c3bd be92 84bd
000002c0: 0879 01be afda 9b3a fcbe 2cbe 4618 79bd
000002d0: ec05 29bc bbcd eabc 8628 a13d 00ef 4f3d
000002e0: a256 4abd 814c 4ebc dcd4 a6bd 39a2 113e
000002f0: f04e 823d 2850 073d d19a 093e c110 06bd
00000300: 3a7a 383d 4e19 943c 0d2c 8fbd ea87 633d
00000310: 0c56 6e3d 439f 38bc 1946 1ebd d152 40bd
00000320: c85e 90bd ccd4 dbbd 19ec 243e ecbe a4bd
00000330: 902b d8bd 5b00 93bd 2234 b6bd 12d8 0abe
00000340: 23cd b73c 8dcb 2f3e 6d43 e6bd 65da c9bb
00000350: a236 503d 120e f9bc d5c6 4bbd 12f6 553d
00000360: 1852 813c 93bf 32be 20f1 513c 4c42 c2bd
00000370: 6ef6 173e 398f 073e a5db 893d 9d82 d93d
00000380: 519a 4abd 7c8a 5dbd c326 a1ba bd50 913b
00000390: b49b bcbd 946a af3d 58af a1bd fa27 aabd
000003a0: 5d7b 8abc 7758 2a3e b0d7 64bd 56b2 0d3e
000003b0: 9df6 b43b 24ea d9bd f799 cdbd 58bb e93d
000003c0: 074d f5bc 6308 a2bc 8b09 a93d 13ad fcbc
000003d0: 15ce 9fbb 72a3 5a3d e5e5 563d 9bd1 bebc
000003e0: be6e 2dbd e880 c2bd 99ba d6bc fdb8 01bd
000003f0: 5336 633d bdf8 0ebe fb63 40bb 3c59 09be

feature.0.0.weight f4 [128, 256]
-0.057317384 0.03465254 0.05066789 -0.03258664 -0.007479206 0.051771823 0.0031264247 0.009504834
-0.06621087 -0.06445113 -0.029472575 0.047940858 0.018932322 -0.0431729 0.034013 0.0074393037
-0.027127668 0.016922446 0.019008849 -0.00069283677 0.01511098 0.050597202 -0.00029199387 -0.016772026
0.0381298 0.000735242 -0.048248675 -0.038811784 -0.030911209 -0.03192079 -0.050089885 0.023720348
0.03893961 0.03613322 -0.020584203 0.037125032 7.3357645e-05 0.027627695 0.043463457 -0.0351395
0.035766054 -0.0390992 -0.06478179 -0.017220814 -0.08039106 0.04274374 -0.061758026 -0.008526253
-0.055159938 -0.07111403 0.033372268 -0.016605414 0.040865075 0.053931817 -0.04639869 0.029094739
0.00185319 -0.06214267 -0.03647503 -0.056168675 -0.050770994 -0.06034801 0.0075140693 0.044465456
-0.051393807 -0.013308184 -0.037315864 0.020165332 0.026117623 -0.031674806 0.042485427 0.01224599
0.03895992 0.057570998 -0.048231713 -0.04437389 -0.019190758 0.008642318 -0.047633715 -0.051171504
0.034057613 -0.06046688 -0.06501924 -0.008142006 -0.00963912 0.037848324 0.018643783 0.036213253
-0.0541577 -0.039565276 0.0046832752 0.030152772 -0.021501256 0.012160851 0.0010581912 0.047401268
-0.0149888545 -0.026111798 -0.006978454 0.006422461 -0.009265077 0.037798133 0.0032040197 -0.019105481
-0.0065444643 0.00033508643 0.036200587 -0.070319355 0.01689762 -0.0581853 0.009305641 -0.0066340193
-0.06815286 -0.023903407 -0.037374258 -0.03502537 0.05007696 0.032270554 0.011591828 -0.0135694025
0.022522768 -0.047625493 0.0309042 -0.04941049 0.048090782 0.006328732 -0.008743241 0.031777278
-0.035359904 -0.018905917 -0.056715082 -0.007911852 -0.05659121 -0.04778221 0.013684646 0.05861404
0.0053793695 0.047295477 -0.05924147 0.018998139 -0.00779617 -0.0097500095 -0.027833756 -0.03792235
-0.061050355 0.03809215 -0.022867292 -0.075549744 0.025435288 -0.021112647 -0.04633573 -0.054619655
-0.022432404 0.026954593 -0.05343653 -0.01505843 -0.035511676 0.035727557 0.048444945 -0.014496752
-0.029738385 0.015479489 -0.0624336 0.0475631 -0.042133376 0.053377166 0.006506491 -0.044186298
0.008031571 -0.012049096 0.008184867 -0.048379105 0.01137598 -0.05008321 0.00019675917 0.041740425
0.03853408 -0.02149087 0.01653652 -0.08712283 -0.0140406 0.0010635235 0.0090553 -0.013192259
-0.054244343 0.041223057 0.0037695202 -0.044947904 0.012711534 0.0040259124 -0.01937543 0.03804883
-0.035019815 -0.0130545 -0.0042483923 -0.006044881 -0.036663778 -0.03618086 0.016294327 -0.009475764
-0.055927303 -0.044688545 0.015050158 -0.045647252 -0.0017782598 0.0556407 0.0528562 -0.014423724
-0.06219841 -0.0582229 -0.06731319 -0.02683296 0.054053783 -0.014390371 0.025132896 0.03362224
0.05762688 0.019517304 -0.041759912 -0.040143535 0.057302494 -0.027937664 -0.052636452 0.013388475
0.034933604 -0.014598135 -0.053724747 -0.028206736 0.044536985 0.012760655 -0.055606134 0.028862355
-0.044196557 -0.023249617 0.02256751 0.004817431 0.018123725 -0.0095067 1.1480716e-05 0.026329372
0.020959973 0.029116906 -0.014927065 0.044239823 0.057250198 -0.02069934 -0.046749372 0.049178194
-0.0488944 -0.05559519 0.022609454 -0.065096 -0.004311641 -0.0063212547 -0.010958208 -0.050852276
00000000: a2c5 6abd d2ef 0d3d 2289 4f3d 9279 05bd
00000010: 2114 f5bb b10e 543d b4e4 4c3b 2aba 1b3c
00000020: 9199 87bd f4fe 83bd 7870 f1bc a25d 443d
00000030: f517 9b3c 11d6 30bd 3751 0b3d 67c5 f33b
00000040: d83a debc f1a0 8a3c 72b8 9b3c 7d9f 35ba
00000050: 0b94 773c 033f 4f3d c116 99b9 7d65 89bc
00000060: fe2d 1c3d 41bd 403a 67a0 45bd 1bf9 1ebd
00000070: 8139 fdbc 60bf 02bd 0d2b 4dbd 2d51 c23c
00000080: 247f 1f3d 6d00 143d 34a0 a8bc 6b10 183d
00000090: 96d7 9938 7a53 e23c bd06 323d 70ee 0fbd
000000a0: 6d7f 123d 7c26 20bd 51ac 84bd aa12 8dbc
000000b0: 11a4 a4bd 0f14 2f3d fcf5 7cbd b2b1 0bbc
000000c0: 63ef 61bd 3ca4 91bd 5cb1 083d 1408 88bc
000000d0: 2362 273d 9ce7 5c3d 8e0c 3ebd 1758 ee3c
000000e0: bde6 f23a 5089 7ebd d766 15bd 2011 66bd
000000f0: 3ff5 4fbd 7a2f 77bd 9538 f63b 6921 363d
00000100: 5082 52bd 920a 5abc 85d8 18bd c431 a53c
00000110: a0f4 d53c 71bd 01bd 3305 2e3d 68a3 483c
00000120: 7094 1f3d 91cf 6b3d 9e8e 45bd 65c1 35bd
00000130: f035 9dbc 8298 0d3c 921b 43bd 3699 51bd
00000140: ff7f 0b3d 1fac 77bd cf28 85bd 0c66 05bc
00000150: 66ed 1dbc d806 1b3d d9ba 983c 5954 143d
00000160: 77d4 5dbd 330f 22bd 2976 993b f202 f73c
00000170: 6723 b0bc 4e3e 473c 01b3 8a3a d527 423d
00000180: d093 75bc 69e8 d5bc 84ab e4bb 8273 d23b
00000190: 8dcc 17bc 37d2 1a3d 88fa 513b 1983 9cbc
000001a0: f272 d6bb 8aae af39 1147 143d 9803 90bd
000001b0: e16c 8a3c b653 6ebd b076 183c 3062 d9bb
000001c0: ba93 8bbd 14d1 c3bc c015 19bd c376 0fbd
000001d0: 801d 4d3d 212e 043d a7eb 3d3c 3352 5ebc
000001e0: ab81 b83c f312 43bd ce2a fd3c a762 4abd
000001f0: d7fa 443d 4061 cf3b d03f 0fbc e428 023d
00000200: 8cd5 10bd 95e0 9abc 134e 68bd b6a0 01bc
00000210: 2fcc 67bd 47b7 43bd 9135 603c 4715 703d
00000220: 6c45 b03b e7b8 413d 2fa7 72bd fca1 9b3c
00000230: 0477 ffbb 81be 1fbc 9e03 e4bc 7754 1bbd
00000240: f00f 7abd 8406 1c3d 3054 bbbc d3b9 9abd
00000250: aa5d d03c 6ef4 acbc 89ca 3dbd dcb8 5fbd
00000260: 29c4 b7bc e1cf dc3c 43e0 5abd a2b7 76bc
00000270: b174 11bd 0f57 123d 356e 463d c983 6dbc
00000280: ea9d f3bc af9d 7d3c 60ba 7fbd 86d1 423d
00000290: 0c94 2cbd 04a2 5a3d 6734 d53b b1fc 34bd
000002a0: da96 033c 9269 45bc d219 063c 2b29 46bd
000002b0: 5262 3a3c 0d24 4dbd 2351 4e39 02f8 2a3d
000002c0: e9d5 1d3d 9f0d b0bc 9977 873c 746d b2bd
000002d0: 8b0a 66bc ed65 8b3a ae5c 143c 5824 58bc
000002e0: 512f 5ebd 82d9 283d 0e0a 773b 4b1b 38bd
000002f0: 0a44 503c cdeb 833b 39b9 9ebc 17d9 1b3d
00000300: f070 0fbd 8be2 55bc 1936 8bbb 2314 c6bb
00000310: c22c 16bd 6232 14bd ae7b 853c 3c40 1bbc
00000320: 0714 65bd 560b 37bd f094 763c 9df8 3abd
00000330: 7f14 e9ba 81e7 633d be7f 583d 7c51 6cbc
00000340: c3c3 7ebd 237b 6ebd 7fdb 89bd ccd0 dbbc
00000350: 8067 5d3d 97c5 6bbc 81e3 cd3c 79b7 093d
00000360: 2a0a 6c3d c1e2 9f3c 710c 2bbd 8c6d 24bd
00000370: 05b6 6a3d 87dd e4bc 5299 57bd 565b 5b3c
00000380: 8a16 0f3d 042d 6fbc 7b0e 5cbd d011 e7bc
00000390: 6a6c 363d 1112 513c 42c3 63bd bf70 ec3c
000003a0: 7307 35bd fb75 bebc 80df b83c 8adb 9d3b
000003b0: 3578 943c fdc1 1bbc 4d9d 4037 b2b0 d73c
000003c0: 40b4 ab3c 9486 ee3c a690 74bc d134 353d
000003d0: 2f7f 6a3d aa91 a9bc 457c 3fbd 136f 493d
000003e0: 7f45 48bd c8b7 63bd 7637 b93c 0d51 85bd
000003f0: ab48 8dbb 8722 cfbb 0e8a 33bc 7a4a 50bd

feature.0.0.bias f4 [128]
-0.058056533 0.18736692 0.20092109 0.02924348 0.07862907 0.14606069 -0.02454052 -0.039729826
-0.00604474 0.05273319 -0.08375323 -0.00793278 -0.051379666 0.004619809 0.009094174 -0.0024014018
-0.03254187 -0.038879253 -0.05202015 0.07460379 -0.04063975 0.13270164 -0.059820484 0.030024324
-0.020125095 -0.053905897 0.03289186 0.01320681 0.10557879 -0.013127358 0.15541953 -0.07258955
0.07624643 -0.007677071 -0.07173395 0.033550035 -0.025835704 0.16078377 -0.021828469 0.1464855
0.022751281 0.0148220295 0.021280503 -0.03111438 -0.062312935 -0.025298605 0.004211077 -0.041032713
-0.042533588 0.0361653 -0.08534473 -0.061414663 0.030453911 0.02445542 -0.04461232 0.10701137
0.07763535 0.02393142 -0.063500725 -0.0019747878 -0.040347483 -0.039408956 0.010396716 -0.0435098
0.09757432 -0.044085246 -0.0050169253 -0.07882889 0.044381782 0.044607732 0.033944618 0.051752407
0.012096899 -0.028896466 -0.016262516 0.11841611 -0.022339158 -0.03916735 -0.039084338 -0.050809227
0.022492567 -0.061700888 -0.018375302 0.012472382 0.0025170876 -0.04517671 0.042985905 -0.021980705
-0.01911713 -0.035240594 0.051780533 0.063177325 -0.026352959 -0.08784156 0.024958767 -0.018309351
0.060226567 -0.012102197 0.03800195 -0.044806946 0.001341604 0.02362155 0.14531578 0.03597333
-0.02151533 -0.05622448 0.031790294 -0.037306044 -0.051774032 -0.076880425 -0.052684076 -0.018464318
0.009334177 -0.06230927 -0.008394337 0.038663488 0.039782137 0.04114001 -0.01847957 0.11983328
-0.041529298 0.039804574 0.046841104 0.014867784 -0.010552322 -0.043993857 -0.040692486 -0.057973698
00000000: b0cc 6dbd 1ddd 3f3e 42be 4d3e 0690 ef3c
00000010: 4708 a13d ef90 153e 3309 c9bc bebb 22bd
00000020: f412 c6bb c2fe 573d d086 abbd 7ef8 01bc
00000030: 7c73 52bd c461 973b bbff 143c d660 1dbb
00000040: a04a 05bd da3f 1fbd 1513 55bd dfc9 983d
00000050: de75 26bd f0e2 073e 5306 75bd 92f5 f53c
00000060: 62dd a4bc 6ecc 5cbd 9db9 063d 6061 583c
00000070: b139 d83d 2114 57bc 4c26 1f3e d4a9 94bd
00000080: 1727 9c3d f08f fbbb 40e9 92bd c36b 093d
00000090: 66a5 d3bc 80a4 243e 9ed1 b2bc 4b00 163e
000000a0: e560 ba3c 19d8 723c 7354 ae3c 96e3 febc
000000b0: d93b 7fbd 053f cfbc 13fd 893b eb11 28bd
000000c0: b337 2ebd 1122 143d 38c9 aebd f18d 7bbd
000000d0: 7b7a f93c bc56 c83c 68bb 36bd c728 db3d
000000e0: 48ff 9e3d d30b c43c ab0c 82bd 716b 01bb
000000f0: 6743 25bd 496b 21bd fd56 2a3c 5537 32bd
00000100: 0cd5 c73d bb92 34bd 0565 a4bb 0b71 a1bd
00000110: acc9 353d 99b6 363d 8309 0b3d 55fa 533d
00000120: 1232 463c 48b8 ecbc f838 85bc 2584 f23d
00000130: 9c00 b7bc f16d 20bd e616 20bd 561d 50bd
00000140: 5542 b83c 12ba 7cbd cd87 96bc f658 4c3c
00000150: b9f5 243b 370b 39bd fd11 303d e110 b4bc
00000160: 879b 9cbc 7158 10bd d317 543d 1d63 813d
00000170: 29e2 d7bc 47e6 b3bd 5476 cc3c 7efd 95bc
00000180: 22b0 763d 4b48 46bc efa7 1b3d 7d87 37bd
00000190: c3d8 af3a fb81 c13c a9cd 143e c558 133d
000001a0: eb40 b0bc a44b 66bd 8a36 023d 39ce 18bd
000001b0: 0211 54bd 7c73 9dbd 42cb 57bd 7b42 97bc
000001c0: 60ee 183c 0138 7fbd 6788 09bc 9b5d 1e3d
000001d0: 98f2 223d 6d82 283d 7862 97bc 276b f53d
000001e0: a01a 2abd 1f0a 233d 75dc 3f3d 0298 733c
000001f0: a5e3 2cbc e732 34bd 2aad 26bd d475 6dbd

feature.0.3.weight f4 [256, 128]
0.08247348 -0.06637288 -0.0015604163 0.069195606 0.064169966 -0.08657021 -0.054690003 0.013108681
0.06657556 0.065361045 0.009449951 -0.04008398 0.053778734 0.012674588 -0.092501216 0.049084675
-0.053605687 -0.08426279 0.026773302 -0.03736785 -0.077364504 -0.0106891515 -0.0061335308 -0.043980446
0.05207135 -0.047720466 -0.02095734 -0.08682018 0.021288628 -0.029726654 -0.08575329 0.0095848655
0.026031742 0.05933228 -0.016899947 0.056131013 -0.028588612 0.013133028 -0.024284251 -0.029015793
0.050383445 0.032780927 -0.09506249 -0.08426218 0.05851299 -0.03482033 -0.010860571 -0.09620471
0.039158486 -0.07991399 0.015140246 -0.053534918 0.06318092 0.036003757 -0.056545064 0.0053496966
-0.03566027 -0.0032405863 -0.03808355 -0.063746065 -0.023553783 -0.048890684 -0.08399173 0.05446743
-0.076604486 -0.0046617487 0.060347147 0.05891096 0.041037105 -0.0782632 0.01919398 -0.065816104
0.011351129 0.051767416 0.053592075 0.00085936725 -0.0043872963 -0.012364938 0.06819602 -0.0118879145
-0.09423341 -0.04390175 0.07524907 0.026391193 0.012378162 -0.008013784 0.0023729058 -0.012927356
0.087077685 0.039080534 0.036733966 0.04407707 0.034561817 -0.007463545 0.06965334 -0.050689034
0.01724155 -0.08268471 0.03839659 -0.059822556 -0.043966945 0.03385506 -0.11113223 -0.06674672
-0.004858747 -0.06462533 -0.07881212 -0.069501355 -0.08764247 -0.08157659 0.04038977 0.02604529
0.0010152165 0.017900614 -0.09383806 0.03867897 -0.054671273 0.056008287 0.028599715 -0.090647556
0.073127106 -0.018078433 -0.091613 0.07837714 -0.026533771 -0.033486683 0.056671448 -0.056917924
0.05571208 0.05365153 0.028139185 0.069387354 0.0683972 0.04480239 -0.007222007 -0.00019050016
0.074822314 -0.062646315 -0.038354773 -0.054275844 -0.006820572 0.021108158 0.07047562 0.06286726
0.006812129 -0.02603502 -0.044397328 -0.022860928 -0.009939569 0.08171661 0.014098536 -0.022773068
-0.070869006 0.012896449 -0.048817646 0.058459982 -0.10592804 0.02248005 -0.07314001 -0.049789965
-0.07179403 0.022080868 0.044259008 -0.066406034 -0.06581975 0.05317513 -0.032386813 -0.049269877
-0.060745295 0.004370831 0.038265947 0.021437613 -0.07115908 -0.040345736 -0.074269734 0.015409155
-0.0018508934 -0.0045224167 0.08904118 0.0050248518 -0.043637164 -0.056127522 0.0569736 0.07163423
0.0045632473 0.009797468 -0.085038945 -0.038988188 0.06638863 0.06752624 -0.01629129 -0.014357495
-0.061202884 -0.05096101 0.033567518 0.0006977422 0.030418558 -0.069868304 -0.0061114333 -0.018243475
-0.056423265 -0.03200203 -0.07501453 0.007945733 0.035454933 0.065890834 -0.030804086 -0.01728911
0.08402845 0.0010845963 -0.0012061531 0.0312434 0.0018687049 -0.08827903 -0.011048546 0.061583433
0.002841482 -0.06932524 0.026222674 -0.007901925 -0.052102607 -0.07968381 0.060815547 -0.040489305
0.048930563 -0.052146472 0.059982177 0.058397546 0.038847104 -0.09821218 -0.05510597 0.032418873
-0.07788311 0.044443257 0.021069368 -0.01683597 -0.03483385 -0.032205727 -0.044754528 -0.010530687
0.010250241 0.05453377 -0.04768688 0.025214775 0.032648418 -0.012518201 0.06308833 -0.04005169
-0.05386907 0.053702384 0.020328375 -0.034191042 0.07812169 0.05597937 0.053345077 -0.07563613
00000000: dbe7 a83d 81ee 87bd e286 ccba 6db6 8d3d
00000010: 8b6b 833d b94b b1bd a002 60bd cbc5 563c
00000020: c458 883d 03dc 853d f8d3 1a3c 192f 24bd
00000030: 1747 5c3d 13a9 4f3c 4771 bdbd 030d 493d
00000040: a391 5bbd f891 acbd af53 db3c 080f 19bd
00000050: 4871 9ebd 8d21 2fbc c9fb c8bb d724 34bd
00000060: c548 553d 8976 43bd baae abbc c7ce b1bd
00000070: 7d65 ae3c 5085 f3bc 6c9f afbd d709 1d3c
00000080: 8540 d53c 6806 733d c271 8abc a2e9 653d
00000090: aa32 eabc e92b 573c c4ef c6bc 87b2 edbc
000000a0: df5e 4e3d 4b45 063d 1fb0 c2bd a691 acbd
000000b0: 51ab 6f3d c39f 0ebd 89f0 31bc fa06 c5bd
000000c0: a664 203d f2a9 a3bd cb0e 783c 6e47 5bbd
000000d0: 0065 813d ad78 133d cc9b 67bd 824c af3b
000000e0: 8110 12bd 0460 54bb 7ffd 1bbd 4c8d 82bd
000000f0: ddf3 c0bc 9941 48bd db03 acbd 3d19 5f3d
00000100: d0e2 9cbd 95c1 98bb 922e 773d 9e4c 713d
00000110: 8616 283d 7548 a0bd b23c 9d3c 98ca 86bd
00000120: 16fa 393c 120a 543d 5d83 5b3d 2947 613a
00000130: 4fc3 8fbb 4f96 4abc 5baa 8b3d 87c5 42bc
00000140: 72fd c0bd 52d2 33bd 2f1c 9a3d 5832 d83c
00000150: c6cd 4a3c 3f4c 03bc c182 1b3b 43cd 53bc
00000160: c955 b23d e912 203d 5b76 163d 288a 343d
00000170: b190 0d3d c190 f4bb 69a6 8e3d 4e9f 4fbd
00000180: 273e 8d3c 9a56 a9bd be45 1d3d 7f08 75bd
00000190: af16 34bd 9aab 0a3d 4b99 e3bd 81b2 88bd
000001a0: 2036 9fbb 495a 84bd 4068 a1bd ba56 8ebd
000001b0: e57d b3bd a111 a7bd be6f 253d ef5c d53c
000001c0: 0311 853a 4fa4 923c 2b2e c0bd d76d 1e3d
000001d0: fcee 5fbd f268 653d f349 ea3c 6da5 b9bd
000001e0: aac3 953d 3919 94bc 999f bbbd 3284 a03d
000001f0: 5a5d d9bc 5529 09bd 5220 683d c522 69bd
00000200: 5a32 643d b5c1 5b3d 2684 e63c f51a 8e3d
00000210: d513 8c3d b682 373d 96a6 ecbb ffc0 47b9
00000220: 713c 993d b64c 80bd e519 1dbd 5950 5ebd
00000230: 1b7f dfbb 04eb ac3c 8655 903d 8dc0 803d
00000240: 4838 df3b 6547 d5bc f9d9 35bd d746 bbbc
00000250: 93d9 22bc 0a5b a73d 8cfd 663c 968e babc
00000260: c523 91bd a14b 533c 03f5 47bd bc73 6f3d
00000270: cdf0 d8bd 1528 b83c 6eca 95bd 90f0 4bbd
00000280: c008 93bd f0e2 b43c ef48 353d e3ff 87bd
00000290: 81cc 86bd 2ace 593d 09a8 04bd 36cf 49bd
000002a0: 0fd0 78bd 3039 8f3b c1bc 1c3d ef9d af3c
000002b0: dabb 91bd 9241 25bd bb1a 98bd ae76 7c3c
000002c0: ad99 f2ba c830 94bb 395b b63d 83a7 a43b
000002d0: e2bc 32bd f9e5 65bd 265d 693d f8b4 923d
000002e0: 4b87 953b 8f85 203c e628 aebd 14b2 1fbd
000002f0: c3f6 873d 334b 8a3d 5075 85bc b33b 6bbc
00000300: e0af 7abd 7ebc 50bd 187e 093d b0e8 363a
00000310: 5730 f93c 1d17 8fbd 6b42 c8bb 5773 95bc
00000320: 151c 67bd 9014 03bd 38a1 99bd d22e 023c
00000330: 3139 113d c6f1 863d da58 fcbc e4a1 8dbc
00000340: 1c17 ac3d 0329 8e3a c817 9eba 29f2 ff3c
00000350: 55ef f43a a3cb b4bd f604 35bc e93e 7c3d
00000360: 2838 3a3b 64fa 8dbd efd0 d63c 1377 01bc
00000370: 8b69 55bd 4431 a3bd b919 793d 1dd8 25bd
00000380: 6a6b 483d 8a97 55bd dfaf 753d 4432 6f3d
00000390: 241e 1f3d 7823 c9bd ccb6 61bd a7c9 043d
000003a0: 2e81 9fbd 220a 363d ab99 ac3c 97eb 89bc
000003b0: f0ad 0ebd 27ea 03bd 8650 37bd e788 2cbc
000003c0: a0f0 273c cd5e 5f3d 5153 43bd 378f ce3c
000003d0: 59ba 053d 2419 4dbc 7434 813d 3e0d 24bd
000003e0: d0a5 5cbd 08f7 5b3d b187 a63c e80b 0cbd
000003f0: 44fe 9f3d a04a 653d 5e80 5a3d 1ee7 9abd

feature.0.3.bias f4 [256]
-0.03627825 -0.08579669 -0.098275706 0.023553584 0.13134949 -0.07480004 -0.007933438 0.008161183
-0.005782485 0.03953359 0.07597793 0.04670662 -0.07188297 0.14119186 -0.040048964 0.08631631
-0.12465139 0.22271545 -0.13074893 0.06347856 0.031235253 0.011209444 -0.10147007 0.1940376
0.15109609 0.17272961 0.046025828 -0.0781049 -0.10725945 0.06255992 0.116546825 -0.051653385
-0.012813968 0.016754836 -0.021248223 0.047129422 0.17667648 0.084783345 0.019441219 -0.08301743
-0.116500326 -0.13291731 0.0037699374 0.023093713 -0.022484062 -0.08805005 -0.05586519 -0.06128403
-0.1133709 -0.0591305 0.17072627 0.15204819 0.13760062 0.11747577 0.002381692 0.03297875
-0.01886132 0.050483964 -0.081128076 -0.08700312 0.02405106 -0.016155105 -0.082130924 -0.015481143
0.20070276 0.1392704 -0.112254046 0.18846725 0.0035730654 -0.103700936 -0.057256576 -0.027637169
0.05355437 0.017833164 -0.019074801 0.086647905 0.026097527 -0.06563614 -0.00048681884 0.1383274
0.010453957 0.09486515 -0.071671 -0.06692254 0.10686083 -0.013354368 0.047193725 0.07614721
-0.106820874 -0.037013076 -0.026563285 -0.0069688912 0.03166113 -0.034302488 -0.09629798 0.034155574
0.04565787 0.00039735012 0.02005757 0.08419429 -0.015613612 0.12826815 0.0211782 0.034457363
-0.09182156 -0.10181175 0.043762565 0.023517966 0.08685218 0.07098244 0.06545962 -0.045488752
0.043242995 0.0662563 0.12916005 -0.017262876 0.04714806 -0.026222782 0.009314845 0.050925966
0.07965107 -0.052398242 0.19600224 -0.101296075 0.1345088 -0.08616788 0.18729682 0.18208852
0.14455278 -0.104774274 -0.004262631 -0.0496177 -0.07077519 0.115702905 -0.037321974 -0.08066204
0.23139587 0.007163975 -0.043345615 0.06794016 0.12992509 0.12444224 0.041786354 0.017165454
-0.07654732 -0.1202632 -0.05371537 -0.07505975 -0.028384909 0.106961034 -0.07788998 0.01587836
-0.019776328 0.05822966 0.07858957 -0.023922438 0.05061667 -0.00941485 0.0028792054 -0.11720487
0.015098017 0.04760154 -0.10028732 -0.0613282 -0.072507925 -0.08285788 0.029537518 0.20702408
-0.05817555 -0.060261402 -0.067038834 0.089879155 0.004180913 -0.0314951 -0.109908015 0.06175545
-0.008553839 -0.026197279 0.041604515 0.0062566465 0.049074862 0.13652088 0.17197238 0.060406093
-0.018997751 -0.027566351 0.048902486 -0.06435304 -0.033412535 -0.06328975 -0.055369567 0.098692685
0.122274615 0.084821396 -0.12225716 -0.040084954 -0.015506707 -0.0172694 -0.02189876 0.057679616
0.18558909 0.02518424 0.070431374 -0.058079824 -0.048533686 0.09575383 -0.044876613 0.082092084
0.031954564 0.03373092 0.029124618 -0.054136083 -0.03448157 -0.031294167 0.042205755 -0.13688149
0.038084026 -0.056169108 0.0824132 0.07429767 -0.07905805 -0.01312086 0.11173491 -0.029696299
0.09211566 -0.010734627 -0.048156165 0.058872867 0.061711226 0.10978789 0.020740682 0.056994982
0.09152423 -0.065711886 -0.03057992 0.0678315 -0.04556294 -0.021747483 -0.022289164 0.13487425
-0.033082064 -0.038818378 -0.04743404 -0.0628331 -0.0034744716 0.1147475 -0.16210459 0.080335625
0.13433592 0.07136773 -0.0852981 0.009601016 0.05874093 -0.086748295 -0.031322036 -0.08243574
00000000: 8198 14bd 2db6 afbd c644 c9bd 72f3 c03c
00000010: 7b80 063e c330 99bd 40fb 01bc 7cb6 053c
00000020: 007b bdbb f9ed 213d 519a 9b3d 714f 3f3d
00000030: 6137 93bd 9994 103e 620a 24bd 9bc6 b03d
00000040: 3a49 ffbd 850f 643e 0ce3 05be 0c01 823d
00000050: 13e1 ff3c d1a7 373c 8acf cfbd cbb1 463e
00000060: efb8 1a3e 08e0 303e 9485 3c3d 76f5 9fbd
00000070: d8aa dbbd 6a1f 803d 1ab0 ee3d 8092 53bd
00000080: adf1 51bc 7041 893c c110 aebc c80a 413d
00000090: aeea 343e e4a2 ad3d 3143 9f3c 0b05 aabd
000000a0: b997 eebd 7a1b 08be 0e11 773b 072f bd3c
000000b0: 7f30 b8bc 9653 b4bd e6d2 64bd f704 7bbd
000000c0: 012f e8bd d332 72bd ded2 2e3e 85b2 1b3e
000000d0: 2de7 0c3e 2397 f03d 2916 1c3b ba14 073d
000000e0: 0e83 9abc 46c8 4e3d 7a26 a6bd b12e b2bd
000000f0: bb06 c53c b657 84bc 4234 a8bd 9fa4 7dbc
00000100: 0685 4d3e e69c 0e3e 73e5 e5bd 8ffd 403e
00000110: 172a 6a3b 2861 d4bd df85 6abd 5867 e2bc
00000120: d45b 5b3d db16 923c c242 9cbc 7574 b13d
00000130: 7bca d53c 3e6c 86bd b83b ffb9 b3a5 0d3e
00000140: 1347 2b3c a948 c23d 3fc8 92bd af0e 89bd
00000150: dad9 da3d 47cc 5abc 354e 413d 12f3 9b3d
00000160: e7c4 dabd 069b 17bd 3f9b d9bc 4c5b e4bb
00000170: 1aaf 013d c480 0cbd e037 c5bd b7e6 0b3d
00000180: bf03 3b3d 6e53 d039 c64f a43c 0e6e ac3d
00000190: 3cd0 7fbc ba58 033e e87d ad3c 2a23 0d3d
000001a0: f10c bcbd ae82 d0bd 6040 333d c0a8 c03c
000001b0: 8edf b13d 3e5f 913d b10f 863d 6a52 3abd
000001c0: 911f 313d 62b1 873d 8842 043e e06a 8dbc
000001d0: 531e 413d 29d1 d6bc 4b9d 183c bf97 503d
000001e0: 1a20 a33d 8a9f 56bd d0b4 483e 5174 cfbd
000001f0: adbc 093e c978 b0bd bdca 3f3e 6a75 3a3e
00000200: a505 143e e593 d6bd 8aad 8bbb ee3b 4bbd
00000210: 95f2 90bd a5f5 ec3d edde 18bd 2432 a5bd
00000220: 0af3 6c3e c7bf ea3b 2c8b 31bd 3624 8b3d
00000230: 150b 053e 93db fe3d 2b28 2b3d 919e 8c3c
00000240: d7c4 9cbd 8d4c f6bd a604 5cbd edb8 99bd
00000250: 7887 e8bc 630e db3d c884 9fbd 5613 823c
00000260: f701 a2bc 3982 6e3d 92f3 a03d fdf8 c3bc
00000270: 6d53 4f3d be40 1abc 0db1 3c3b 1b09 f0bd
00000280: ac5d 773c d5f9 423d 7063 cdbd 4733 7bbd
00000290: 097f 94bd 64b1 a9bd aaf8 f13c 1ffe 533e
000002a0: 7c49 6ebd a9d4 76bd a84b 89bd 9012 b83d
000002b0: 0a00 893b 0201 01bd 7417 e1bd 48f3 7c3d
000002c0: 6725 0cbc ad9b d6bc 7f69 2a3d 8e04 cd3b
000002d0: b902 493d 21cc 0b3e 8719 303e 616c 773d
000002e0: 2ca1 9bbc d4d2 e1bc f94d 483d 87cb 83bd
000002f0: 95db 08bd 0e9e 81bd 33cb 62bd 641f ca3d
00000300: 1d6b fa3d d7b6 ad3d f661 fabd 1f30 24bd
00000310: d80f 7ebc 8f78 8dbc 0765 b3bc 7641 6c3d
00000320: 110b 3e3e 2e4f ce3c 533e 903d 1ce5 6dbd
00000330: 42cb 46bd 961a c43d 8ad0 37bd e51f a83d
00000340: cae2 023d 6f29 0a3d c096 ee3c ccbd 5dbd
00000350: 8c3c 0dbd 502e 00bd f1df 2c3d a92a 0cbe
00000360: fffd 1b3d 9411 66bd 40c8 a83d 6029 983d
00000370: 30e9 a1bd e0f8 56bc 46d5 e43d a745 f3bc
00000380: 23a7 bc3d 4ae0 2fbc 663f 45bd ad24 713d
00000390: e9c4 7c3d 79d8 e03d 5de8 a93c 9273 693d
000003a0: 0e71 bb3d f493 86bd be82 fabc 3eeb 8a3d
000003b0: 35a0 3abd c727 b2bc c497 b6bc 7a1c 0a3e
000003c0: 0f81 07bd 0500 1fbd 324a 42bd a4ae 80bd
000003d0: f6b3 63bb bd00 eb3d bffe 25be 0187 a43d
000003e0: 5b8f 093e 3f29 923d c5b0 aebd 944d 1d3c
000003f0: 549a 703d 17a9 b1bd 894b 00bd 12d4 a8bd

classifier.0.weight f4 [2, 256]
-0.009765846 -0.0603553 0.03358507 -0.024537256 0.013440386 -0.02579751 0.057437357 -0.020337006
0.018879546 0.031841006 0.027087897 0.03799327 -0.038844462 0.031742476 -0.017002428 -0.052189738
-0.012210748 0.06885328 -0.038578548 0.020268135 0.011609927 0.033101268 -0.049114835 -0.026888564
0.03441048 0.022601744 -0.05299077 -0.023033096 0.044302616 0.01670139 -0.054462433 0.058538776
-0.040629342 -0.038619403 -0.031232987 -0.047071125 0.032104462 0.0028682537 0.033622544 -0.042182554
-0.046785276 -0.036532737 -0.025540933 0.022136956 -0.012182553 -0.022695364 -0.01297209 -0.05497831
0.057282273 0.021702219 0.047403194 0.059013084 -0.06330894 -0.04426576 -0.009971594 0.03690586
0.053084686 -0.060427472 -0.051444992 0.01905982 -0.054766413 0.032212045 -0.051314108 -0.011841691
-0.0062235557 0.036028538 -0.016718023 0.05223835 0.019259686 0.022993641 -0.029213158 0.05078651
0.049096797 -0.027914273 0.023347788 -0.007776063 0.055457287 0.013529743 0.011685538 0.017335229
-0.021548694 0.052002326 0.02369188 -0.034886584 0.03906598 0.022403622 0.0058281096 0.0640302
-0.0037051316 -0.019628052 0.012010321 -0.016911447 0.049425717 0.045555238 0.03090718 -0.059303496
-0.028753823 0.040957205 0.0032684035 -0.023630083 0.045379672 0.056193676 -0.0350116 -0.0048551145
0.026492203 0.0273551 0.03683257 -0.026509913 -0.062081914 -0.033678897 -0.03361213 0.01740623
0.019491129 0.017374484 0.044910632 0.023475539 -0.00028927214 -0.0053346306 0.027674315 -0.023817182
-0.043584 0.04337184 0.07585206 -0.011576764 0.007900515 0.03358971 0.006490616 -0.049486905
0.011914775 -0.052602507 -0.04708342 -0.03838576 -0.04050697 0.049726896 0.024938606 0.021419812
0.11059418 0.036915436 -0.031569514 0.03391249 0.008503344 0.04114098 -0.008961648 0.012077647
-0.019117633 -0.05377555 -0.01362164 -0.0645651 -0.036550783 -0.0477977 -0.048122715 -0.03409574
-0.022273812 0.036180753 -0.065245554 4.4571127e-05 0.019646129 -0.028336037 0.018465385 0.0006395027
-0.053956196 -0.0666429 0.012235493 -0.047133762 -0.058896344 0.0043425714 -0.035426363 0.024783598
-0.002065128 -0.05101356 -0.010361926 -0.059943244 -0.05087258 0.05850748 -0.05489582 0.03834578
0.014541531 0.012951001 -0.057778154 0.011807917 -0.022582337 -0.015408307 0.055547707 0.051828284
0.0134341065 0.033480156 -0.028104607 0.0028101034 0.017094856 0.016388172 0.050068494 -0.04594931
0.05113349 0.026099462 -0.04560941 0.0217956 0.047384024 0.0041415654 0.026214967 0.041202106
0.060316537 -0.033266813 0.03812275 0.026569922 0.027942339 0.027341837 -0.0110427225 -0.041977797
0.03416301 -0.037437018 -0.007838036 -0.017431302 -0.027903462 -0.031994678 -0.038319755 0.02266448
0.008912265 0.006885152 -0.059089947 0.056252297 -0.01755201 0.03215727 0.051193945 -0.069225654
0.014533343 -0.052833 0.03893176 0.041285276 0.030751089 0.051090293 0.011941441 0.020558642
0.06529934 0.025298642 -0.0038329521 0.051719863 0.014065593 0.0036184245 0.009317328 0.012685288
-0.032950334 -0.009813969 -0.05407516 -0.031437654 -0.042992093 0.049273834 -0.002691258 -0.046017967
0.059473284 -0.05913595 -0.038192432 -0.05987975 0.022225697 0.048475888 -0.026134884 -0.049447913
00000000: ed00 20bc 1e37 77bd 8090 093d 5b02 c9bc
00000010: 1135 5c3c 4d55 d3bc 6f43 6b3d cb99 a6bc
00000020: 47a9 9a3c b76b 023d 70e7 dd3c d59e 1b3d
00000030: 5f1b 1fbd 6604 023d ad48 8bbc e8c4 55bd
00000040: 970f 48bc f302 8d3d 8a04 1ebd 5c09 a63c
00000050: 9037 3e3c 3295 073d a32c 49bd 6845 dcbc
00000060: 01f2 0c3d 4b27 b93c da0c 59bd e7af bcbc
00000070: a976 353d 5ad1 883c 0014 5fbd 5bc6 6f3d
00000080: f46a 26bd 612f 1ebd 52dc ffbc a7cd 40bd
00000090: f87f 033d 50f9 3b3b cbb7 093d 9dc7 2cbd
000000a0: eba1 3fbd 5aa3 15bd 383b d1bc 9058 b53c
000000b0: 5599 47bc a1eb b9bc e488 54bc f030 61bd
000000c0: d1a0 6a3d dac8 b13c da29 423d b4b7 713d
000000d0: 1ea8 81bd 0350 35bd e65f 23bc 992a 173d
000000e0: 546f 593d cc82 77bd fcb7 52bd 5723 9c3c
000000f0: bf52 60bd c7f0 033d be2e 52bd a703 42bc
00000100: f8ee cbbb a992 133d 3cf4 88bc e1f7 553d
00000110: 7dc6 9d3c 295d bc3c 6f50 efbc 8405 503d
00000120: b919 493d 79ac e4bc dc43 bf3c 58ce febb
00000130: 2e27 633d dbab 5d3c b374 3f3c 9c02 8e3c
00000140: e386 b0bc 6400 553d 7915 c23c 3ce5 0ebd
00000150: a603 203d cd87 b73c baf9 be3b 4422 833d
00000160: cbd1 72bb 02cb a0bc f0c6 443c e089 8abc
00000170: 9f72 4a3d 2198 3a3d 0e31 fd3c 39e8 72bd
00000180: 238d ebbc bec2 273d b632 563b e093 c1bc
00000190: 09e0 393d 572b 663d 5368 0fbd a717 9fbb
000001a0: 2d06 d93c cd17 e03c c0dd 163d 512b d9bc
000001b0: 9b49 7ebd e2f2 09bd dfac 09bd 8397 8e3c
000001c0: dcab 9f3c ef54 8e3c 36f4 373d c64f c03c
000001d0: 73a9 97b9 20ce aebb 3fb5 e23c 401c c3bc
000001e0: 2385 32bd aca6 313d 5358 9b3d 78ac 3dbc
000001f0: 2971 013c 5d95 093d 3caf d43b c8b2 4abd
00000200: 3036 433c ba75 57bd 8bda 40bd 633a 1dbd
00000210: a3ea 25bd 6eae 4b3d 0c4c cc3c 9a78 af3c
00000220: 347f e23d a434 173d 094f 01bd d3e7 0a3d
00000230: 9c51 0b3c 7283 283d e0d3 12bc 53e1 453c
00000240: 959c 9cbc c043 5cbd 4d2d 5fbc b53a 84bd
00000250: 46b6 15bd 85c7 43bd 531c 45bd faa7 0bbd
00000260: 9277 b6bc 4532 143d 769f 85bd e2f1 3a38
00000270: ebf0 a03c fa20 e8bc b844 973c 4da4 273a
00000280: 2c01 5dbd 137c 88bd 6177 483c 550f 41bd
00000290: 4b3d 71bd 214c 8e3b 3c1b 11bd f906 cb3c
000002a0: 1957 07bb 98f3 50bd 11c5 29bc 0c87 75bd
000002b0: c45f 50bd 8aa5 6f3d 70da 60bd 7710 1d3d
000002c0: 9a3f 6e3c 6f30 543c c9a8 6cbd fe75 413c
000002d0: 98fe b8bc 2073 7cbc fe85 633d e549 543d
000002e0: ba1a 5c3c 7d22 093d a23b e6bc b629 383b
000002f0: 830a 8c3c 7d40 863c 9f14 4d3d 5835 3cbd
00000300: 5a71 513d 8ace d53c efd0 3abd b08c b23c
00000310: c015 423d f8b5 873b c5c0 d63c 8ac3 283d
00000320: 790e 773d c842 08bd 9a26 1c3d 2aa9 d93c
00000330: 55e7 e43c fdfb df3c 89ec 34bc e9f0 2bbd
00000340: 83ee 0b3d 8f57 19bd 1b6b 00bc 17cc 8ebc
00000350: cd95 e4bc da0c 03bd 2df5 1cbd dcaa b93c
00000360: c004 123c d79c e13b 4d08 72bd cf68 663d
00000370: 3cc9 8fbc 57b7 033d beb0 513d 2ec6 8dbd
00000380: 421d 6e3c 6a67 58bd e976 1f3d c01a 293d
00000390: b5e9 fb3c 0e44 513d 09a6 433c 996a a83c
000003a0: a9bb 853d 193f cf3c 4432 7bbb 35d8 533d
000003b0: 5f73 663c 1723 6d3b b5a7 183c f4d5 4f3c
000003c0: eef6 06bd c5ca 20bc ea7d 5dbd c5c4 00bd
000003d0: 7a18 30bd 5cd3 493d d15f 30bb 567d 3cbd
000003e0: 429a 733d 8a38 72bd ab6f 1cbd 7844 75bd
000003f0: aa12 b63c a78e 463d d318 d6bc e589 4abd

classifier.0.bias f4 [2]
0.062378 -0.101104215
00000000: 1380 7f3d ba0f cfbd
